checkpoints/agent2_checkpoint_critic.pth (torch_old, 568206 bytes, 5 tensors)

fcs1.weight f4 [400, 52]
000000 a8 ac ca 3e 3c 80 b7 3e 3f 4e 18 be 30 e9 f1 3e
       0.3958485 0.35840023 -0.14873599 0.4724822
000010 ee 3c 55 bd 29 fa a2 be 82 f0 20 be 6d 1e 03 3f
       -0.05206006 -0.31831482 -0.15716746 0.512183
000020 f4 5c d7 3e 86 6a f0 3e 5d 90 14 3c 03 69 fe 3d
       0.42063105 0.4695627 0.009067622 0.12422373
000030 39 06 bc bd 59 0f 4b be 93 a4 85 3d 60 2e 04 3e
       -0.091808744 -0.19830073 0.06525531 0.12908316
000040 41 51 d0 3e 67 27 e7 3e 28 37 18 be 00 91 e1 3d
       0.40686992 0.4514725 -0.1486479 0.11013985
000050 43 8a e0 bd 03 fb 86 be 34 ae 2b be 4c 1e e1 3d
       -0.10963871 -0.26363382 -0.16765672 0.10992107
000060 50 5a a2 3d 27 23 b9 3e d0 b4 1f bd 24 bb 0d be
       0.07927382 0.36159632 -0.038990796 -0.1384092
000070 1a ae 01 3e 2e 36 97 be ba be 05 bd 91 36 50 be
       0.1266407 -0.29533523 -0.032652594 -0.20333315
000080 ad d9 13 3e 50 6c ee 3e c8 12 b6 3b da c5 9d 3d
       0.14438505 0.4656701 0.005556438 0.07703753
000090 05 6b 00 3e fd df 85 be d5 95 86 bc c8 c6 0f 3e
       0.12540825 -0.26147452 -0.016428867 0.14040673
0000a0 38 54 98 3e fc 2b e6 3e 8e 01 b3 3d 5d 5d 46 3e
       0.29751754 0.44955432 0.08740531 0.19371553
0000b0 d8 08 fc 3d d2 db 8a be 96 46 9c 3d 4f b3 39 3e
       0.12306374 -0.27120835 0.07630651 0.18134807
0000c0 af 5d ca be f1 e6 44 3e 26 bc e8 3e 7d ff 10 3f
       -0.395246 0.19228722 0.45456046 0.56639844
0000d0 99 a8 37 3e ba e1 9e 3e b2 e3 38 be 2c 74 5c 3e
       0.17935409 0.3103159 -0.18055609 0.21528691
0000e0 75 5b ec bd 2e fc 02 be 10 ce 3e be e9 09 29 3e
       -0.115408815 -0.12791511 -0.18633294 0.16507687
0000f0 ef 16 18 3e 56 58 7c 3e ae a3 37 3d 9c 79 96 bd
       0.14852498 0.24643072 0.04483383 -0.07347414
000100 22 89 4e 3d 80 8b bf be 26 c9 2c 3a 91 14 a2 bd
       0.05042375 -0.37411118 0.0006591253 -0.07914079
000110 33 2e 40 3e 48 81 ca 3e bf 06 60 bd 8e dc 44 3e
       0.18767624 0.3955176 -0.054693934 0.1922476
000120 19 30 20 3e a2 80 ad be 32 94 11 ba 0b 11 58 3e
       0.15643348 -0.33887202 -0.0005553394 0.21100251
000130 1c 17 b6 3e 94 da 80 bd ca 62 91 be 14 7b 5c 3e
       0.35564506 -0.062916905 -0.28395683 0.21531326
000140 01 b6 9a 3d e2 af 18 be 30 42 60 be f3 44 95 3e
       0.07554246 -0.14910844 -0.21900249 0.29154167
000150 73 30 b1 3e e0 98 c0 bd fd 38 a8 3d 41 fb ab bd
       0.34607276 -0.094041586 0.08213995 -0.08397532
000160 05 2b ad bd 9f 6b a8 be 6e b0 1c 3e bb 41 5f bc
       -0.08455471 -0.32894608 0.15301678 -0.013626511
000170 e1 c3 07 3f 47 21 ed 3d a6 69 90 3d 1b 30 36 3f
       0.5303326 0.11578613 0.07051401 0.71167153
000180 12 c5 49 be 2d f8 c6 be 85 f1 f2 3d 2b c1 2d 3f
       -0.19704083 -0.38861218 0.118624724 0.67872876
000190 e8 39 1b 3f d0 0b 2b 3f 30 a8 32 3d 06 59 3b 3e
       0.6063523 0.668149 0.043617427 0.18295678
0001a0 c1 67 c4 3e d6 97 c2 3d 96 02 23 be b5 18 f3 bd
       0.38360408 0.09501617 -0.15918955 -0.11869947
0001b0 8a ba ac 3e d3 ec 9b bb fb 89 db bd 6e 30 44 be
       0.33736068 -0.0047584563 -0.10719677 -0.191591
0001c0 2d e7 44 3e 95 c1 ae bd 69 3e 38 be db 00 a9 3e
       0.19228812 -0.085330166 -0.17992558 0.33008465
0001d0 80 28 8c be 1c 6a e4 3d ed 55 37 be c9 09 b8 3e
       -0.2737465 0.11153051 -0.17903872 0.35944965
0001e0 a1 48 af 3e dd b7 ce 3d 81 54 a9 bc f0 48 a3 be
       0.342351 0.10093663 -0.020670177 -0.31891584
0001f0 9f a0 cc be 8a e1 34 be ea 77 60 bd d8 33 9e be
       -0.39966294 -0.17664161 -0.05480186 -0.3089893
000200 75 5e 99 3c 97 3f 82 3d 90 df ed bc 45 44 9d bd
       0.018721798 0.06359785 -0.029037267 -0.07679037
000210 3d 9a a2 be 92 95 e0 3c e9 33 32 bd 8d fc 9c bd
       -0.317583 0.02741507 -0.043506537 -0.07665358
000220 d9 a3 7d 3c 56 13 fc bd 5e 0f b7 bc f8 a4 32 bf
       0.015480959 -0.123083755 -0.022346195 -0.6978297
000230 b5 26 91 3e b0 75 a0 3c 89 90 4a bd 81 87 23 bf
       0.28349844 0.019587368 -0.049454246 -0.6387864
000240 8c dc 95 3b f1 cf 21 be fc fd 9f 3d 70 f9 30 be
       0.0045734104 -0.1580198 0.078121156 -0.17282653
000250 ca 2c d7 3e bf ca 3c be d7 95 98 3d 17 95 a1 bd
       0.4202636 -0.18436716 0.07450455 -0.07889765
000260 20 e9 8d bf a3 19 39 bf 88 57 16 bc ae 52 94 3e
       -1.1086769 -0.72304744 -0.0091761425 0.2896933
000270 c2 af 03 bc 3b 6a 36 3f 79 af 13 bd 55 23 3d bd
       -0.008037509 0.71255845 -0.036056016 -0.046176273
000280 b7 0e f9 bd da 1c 13 bf 2c 56 76 bd 29 10 62 bd
       -0.1216101 -0.574659 -0.060140774 -0.055191193
000290 26 04 0f 3e 87 2e 14 3f db e0 f4 bd 3f 0a 05 bf
       0.13966426 0.57883495 -0.1195695 -0.5196876
0002a0 8d 60 1e bc 2d 8c ca be 55 94 a9 bd ed 97 09 bf
       -0.009666574 -0.3956007 -0.08280245 -0.53747445
0002b0 c8 9b 98 3e 3d 63 2a 3f 06 93 0a bd 3e 7a 40 3f
       0.29806352 0.66557676 -0.03383162 0.75186527
0002c0 7c f7 f0 3d 36 ca 1b bf 70 91 e5 bd 7a 6b 39 3f
       0.11765954 -0.60855424 -0.112093806 0.7242962
0002d0 50 72 41 3f 06 34 29 be 22 02 85 bd 4e 42 54 be
       0.7556505 -0.16523752 -0.064945474 -0.20728418
0002e0 29 e2 07 3e df 3b 09 bf be cf 5b bd 8c 78 57 be
       0.13269867 -0.5360698 -0.053664915 -0.21042079
0002f0 b9 b2 5b 3f b9 5e b7 be 46 e3 49 3d c9 60 b6 bc
       0.85819584 -0.35814455 0.04928901 -0.022262948
000300 74 85 19 bd f4 a6 e3 be 78 85 54 3d 6a cc cd bd
       -0.037480786 -0.44463313 0.0518851 -0.100487545
000310 16 6d 3c 3f 62 ea 7b be 44 34 20 bd d9 b2 e6 3e
       0.7360395 -0.24601129 -0.039112344 0.45058325
000320 b6 6b 0f be 0c 9b 09 bf dd 74 87 bd 4f b4 f1 3e
       -0.14005932 -0.5375221 -0.06614087 0.47207877
000330 72 66 bf 3f 99 ff bf 3d f1 69 05 3f 16 78 9c bd
       1.4953139 0.09374923 0.5211478 -0.07640092
000340 5b a7 74 3e d4 55 70 3d 9c 1d ee bd 58 18 a7 be
       0.23891966 0.058675602 -0.11626741 -0.3263576
000350 18 a2 4c 3d 9d 73 9f be c3 c0 cf bd 57 61 c1 be
       0.049959272 -0.31142893 -0.10144188 -0.37769577
000360 5f f4 8f 3e e8 6d 33 3e 2b a9 17 bc 6d ec c5 3e
       0.28116128 0.17522395 -0.009256641 0.3865694
000370 3e 8f 21 3e e8 4b 19 bf d1 7d 1c 3d 32 c6 bd 3e
       0.15777299 -0.5988145 0.038205925 0.37065274
000380 fb 8d 98 3e 5b 55 6f 3e 89 26 a4 bd 1e ca 81 3e
       0.29795823 0.23372404 -0.080151625 0.25349516
000390 f9 72 bb 3e 6a a8 15 bf 1f 01 e0 bd d1 ee 89 3e
       0.36611155 -0.58460104 -0.10937714 0.26940015
0003a0 52 b1 86 3e 65 9e b7 bd 1b 51 bd bd cf c9 2a be
       0.2630716 -0.08965758 -0.09243985 -0.16678546
0003b0 24 49 1c bc 54 06 9f be ac 09 98 bd a4 a2 49 be
       -0.009538922 -0.31059515 -0.0742372 -0.19690949
0003c0 15 00 7c 3e 88 98 c4 bc 36 a5 82 bd 80 20 93 3e
       0.24609406 -0.023998514 -0.06379168 0.28735733
0003d0 da b1 80 be b7 dc 19 bf 3a c6 3a bd 81 1b a5 3e
       -0.2513569 -0.6010241 -0.0455992 0.32247546
0003e0 a1 1a 0a 3f ad 36 b2 be b2 24 08 3e b1 3c ac bd
       0.5394688 -0.3480734 0.13295248 -0.084100135
0003f0 40 c3 cf be 4e d3 13 bf 65 a7 00 3e 34 d0 bb bd
       -0.4057865 -0.577443 0.12563856 -0.09170571

fcs1.bias f4 [400]
000000 01 55 d9 be a6 c5 db be f1 af a9 be 23 d5 3c bf
       -0.42447665 -0.4292423 -0.33142045 -0.7376272
000010 d7 ea 02 bf 04 a7 bd be ae 0e a3 bc 75 35 50 bd
       -0.5113959 -0.37041485 -0.01990446 -0.05083223
000020 ef 9c 08 bf b2 cf 91 be 4a 9c de be 1a f3 a9 be
       -0.5336446 -0.2847877 -0.43478614 -0.33193284
000030 c3 0d 83 be 14 41 0f bf 4d 24 b4 3d d4 c8 0b bf
       -0.25596437 -0.55958676 0.08795986 -0.54603314
000040 b8 0b e1 be 37 21 67 be 6e 54 dd be 96 73 ba be
       -0.43954253 -0.22571264 -0.43228477 -0.3641631
000050 a8 11 2d be 09 1a 9f bd 65 58 fc bc 32 2e 29 be
       -0.16901267 -0.07768638 -0.030803869 -0.16521528
000060 63 a4 54 bf d5 38 5b bf 9f a9 0a 3d 72 f1 45 bf
       -0.83063334 -0.85633594 0.03385317 -0.7732154
000070 10 2b 27 be 37 a9 bd 3e 77 36 39 be 88 30 28 bf
       -0.16325021 0.37043163 -0.18087183 -0.6569905
000080 40 63 10 bf be c9 3c be 9d a2 20 bf 62 1b 3b bd
       -0.56401443 -0.18436334 -0.6274813 -0.04568041
000090 dc 54 d5 be 29 4c 83 be 39 a0 e4 be 23 e1 bd be
       -0.41666305 -0.25644043 -0.4465349 -0.37085828
0000a0 84 55 e2 bd 47 50 a4 be 18 ea 89 3e a6 96 6e bd
       -0.11051467 -0.32092497 0.26936412 -0.05824914
0000b0 51 b4 ec be b7 7d c4 be 91 f6 a0 be 42 7e a7 be
       -0.4623132 -0.38377163 -0.31438115 -0.32713515
0000c0 54 83 9c 3e 21 dd bf be 9a 6d e0 be 9c 00 dc bd
       0.30568945 -0.37473395 -0.4383362 -0.10742304
0000d0 fa 42 01 bf d2 94 4f bf ac b3 05 be e0 45 ae be
       -0.50492823 -0.81086457 -0.1305682 -0.34037685
0000e0 8d 50 99 be d3 3a 04 be 27 e3 1e bf df 8a 40 bf
       -0.29944268 -0.12913065 -0.62065357 -0.752119
0000f0 7f 4e 4e be 76 95 e4 be 19 0d 48 bf 25 2f 3b be
       -0.20147131 -0.4464528 -0.78144985 -0.18279703
000100 02 58 20 bf 73 a6 1c be 1c 3f d2 be 52 a1 76 be
       -0.6263429 -0.1529787 -0.41063774 -0.24084976
000110 36 70 83 be ca 42 10 bf 0d 74 e0 be 00 eb 35 bf
       -0.25671548 -0.5635191 -0.4383854 -0.71061707
000120 6d f6 3f bf 09 56 f1 3d b7 9a 48 bf 78 b3 f5 be
       -0.7498539 0.11783988 -0.78361076 -0.47988486
000130 9d c1 39 bf 39 30 8c bd 4d 14 79 be f6 84 d1 be
       -0.72561055 -0.06845135 -0.2432415 -0.40921754
000140 62 22 6f be 4d 8f d7 be 7c e0 09 bf 7e 03 94 bd
       -0.2335296 -0.42101517 -0.5385816 -0.072272286
000150 d4 d3 d5 bd 8c d0 80 be 01 5d 13 bf 62 4f f4 bd
       -0.10440794 -0.2515911 -0.5756379 -0.119292036
000160 54 c6 18 bf f6 ef 6d bd b4 dd b2 be 57 8b d2 3d
       -0.59677625 -0.058090173 -0.3493477 0.10280483
000170 33 e3 d8 be 53 f7 5e be ab 77 c4 be d9 23 99 be
       -0.4236084 -0.21774034 -0.3837255 -0.29910162
000180 db 6d 34 bd fc 66 54 be dd b7 53 be 31 40 ab be
       -0.04405008 -0.2074241 -0.20675607 -0.33447412
000190 3b d3 cf be b2 db 43 be a8 0d 09 bf c4 d0 5f bf
       -0.40590844 -0.19126776 -0.5353646 -0.87427926
0001a0 f2 9d c0 be 68 1b 10 bf 03 e6 4d be ce bd 32 be
       -0.37620503 -0.5629182 -0.20107274 -0.17455217
0001b0 98 8b 8f 3d b3 8e 7b 3c 44 49 3a bf 02 c1 46 bf
       0.07009047 0.015353846 -0.72768044 -0.77638257
0001c0 5a 55 f7 be 80 4c 04 bf b2 bd e6 bc 27 f7 16 bf
       -0.48307306 -0.5167923 -0.028166626 -0.58970875
0001d0 03 2f cc bc 07 4d 19 bf 71 cf f2 be f9 70 35 bf
       -0.02492476 -0.5988316 -0.4742389 -0.7087551
0001e0 23 bd 92 be 5f bf a7 be dc 0b 17 bc f0 d6 67 bf
       -0.28659925 -0.32763192 -0.009219136 -0.90562344
0001f0 56 ac 11 3c 24 a5 69 bd 8b 33 e6 be f2 5a c0 be
       0.008891186 -0.057042256 -0.449612 -0.37569386
000200 60 76 c8 be 8b 57 de be d5 13 ed be df 34 08 bf
       -0.39152813 -0.43426165 -0.46304193 -0.53205675
000210 88 dc 55 be c2 23 a5 be a5 03 37 bf c0 ab 7e bd
       -0.20884907 -0.32253844 -0.71489936 -0.062175512
000220 aa b5 81 be 1a 4c 7b be d7 ce 96 be e0 5f 25 bf
       -0.2533391 -0.24540749 -0.2945468 -0.6459942
000230 61 1b 41 be 4e 3f d2 be b8 91 ff be e7 85 cf bd
       -0.188581 -0.41063923 -0.49915862 -0.10132962
000240 02 a6 9f be 6e 1f a4 be 05 fb 36 bf 2b ca 3c be
       -0.3118134 -0.3205523 -0.71476775 -0.18436496
000250 93 ce 43 be bc 01 44 be 5a 3f bf be 2c e9 cf 3d
       -0.1912177 -0.19141287 -0.3735302 0.10151896
000260 a0 d8 e8 be 4e 29 1a 3e 5e 08 26 bf f9 4d 89 be
       -0.45477772 0.15054819 -0.6485652 -0.268173
000270 c7 bc f5 be 17 9c e7 be dd ab f9 be b7 ca 4a bf
       -0.47995588 -0.45236275 -0.48763934 -0.7921557
000280 3f e7 fa be fd 4d 04 bf 13 27 96 be c0 ff 82 be
       -0.49004552 -0.516815 -0.29326686 -0.25585747
000290 49 4a 8d be 29 6d 51 3d 5d c2 0f bf 20 ba 0e be
       -0.27595738 0.051129494 -0.5615595 -0.13938189
0002a0 ea 85 8f be 37 ba 19 3c 5f bc 37 bf 37 c4 b0 3d
       -0.28031856 0.009382776 -0.71771806 0.08631175
0002b0 91 77 d1 be 73 3e ba bc 9a 06 4a be 9d bd 03 bd
       -0.40911534 -0.022734856 -0.19729081 -0.03216325
0002c0 9f 2c 8e be e2 c4 93 be 62 22 06 bf fe 6e b2 be
       -0.27768418 -0.28861147 -0.52396214 -0.34850305
0002d0 79 62 04 bf 30 24 49 bf b3 9c 10 be 38 bc 9a bd
       -0.5171276 -0.7857084 -0.14122276 -0.07555431
0002e0 15 19 cb be 90 d5 95 be 60 fb a6 bd 9b 77 21 3d
       -0.39667574 -0.29264498 -0.08153415 0.039420705
0002f0 5e 6a 86 3e 68 0d 8d be fa 06 c9 be bc 6b 26 bf
       0.26253027 -0.2754929 -0.39263135 -0.6500814
000300 79 64 07 bb 88 66 dd be e0 10 c6 be 83 7d 81 be
       -0.0020659252 -0.43242288 -0.3868475 -0.2529107
000310 7a 64 32 bf c1 e8 98 be a3 c0 f6 be 4c a0 cc bd
       -0.69684565 -0.29865077 -0.48193845 -0.09991512
000320 f5 96 20 bf df 30 8a 3d d6 b9 32 be 94 f1 87 be
       -0.6273034 0.06747603 -0.17453703 -0.26551497
000330 7c 0a 0d bf 2a 99 26 be 24 53 7c be 63 d7 c0 bd
       -0.5509412 -0.16269365 -0.2464109 -0.09416082
000340 b3 18 32 3e 5e cf 37 3e 5c a0 8d be d6 d0 16 bf
       0.17392235 0.17950198 -0.27661407 -0.5891241
000350 44 93 94 be ec c5 90 bd 6f 89 78 bf e9 dc 03 3e
       -0.29018605 -0.070690006 -0.9708471 0.1287724
000360 7d 1d 19 be 1c c8 d2 be 6c 99 ec be 88 cd a7 bd
       -0.14952655 -0.41168296 -0.46210802 -0.08193499
000370 98 80 24 bf f5 54 3f bf 47 e3 11 bd f2 89 1e be
       -0.6425872 -0.7473901 -0.03561714 -0.1548231
000380 1f 1c c2 be 27 8c cd 3e 55 27 1d bf ec 7a c0 bd
       -0.3791208 0.4014599 -0.6138814 -0.093984455
000390 b9 6f c8 be 80 2e 7a be 54 1a bf be d2 95 97 3e
       -0.39147738 -0.24431801 -0.37324774 0.2960649
0003a0 e1 53 e8 be df 1c 83 be 44 a2 dc be 4a 70 31 bf
       -0.45376495 -0.25607964 -0.4309255 -0.69311965
0003b0 7b c3 25 bf bc 80 3f be 7a 01 c0 be 89 1a a0 bd
       -0.64751405 -0.18701452 -0.37501127 -0.07817561
0003c0 a7 cd 01 bf d3 56 72 3e ae 8e 81 3e cb fb ad bd
       -0.50704426 0.23665933 0.25304168 -0.08495291
0003d0 85 56 e6 be 5c eb 3b bf 12 79 ce be 6e 40 16 be
       -0.44987884 -0.73406005 -0.40326744 -0.14673015
0003e0 64 bc b2 be 07 27 5f bf 93 3b 2a 3b 2e e5 18 be
       -0.34909356 -0.87168926 0.002597545 -0.14931175
0003f0 ac 1e 38 bf fa 2d 2e bf f9 89 be be 46 4e e2 be
       -0.719218 -0.68038905 -0.3721464 -0.44200343

fc2.weight f4 [300, 400]
000000 59 62 27 3d 37 a8 22 b8 4f 06 7f bc 7d 30 15 3c
       0.040865276 -3.8780472e-05 -0.015565469 0.009105799
000010 90 d3 c9 bc 82 f9 fb bc 7b 29 4c bb 3a ec b1 bb
       -0.024637014 -0.030758623 -0.0031152654 -0.0054297717
000020 15 90 16 bd dd a2 5d bd bb 28 87 3c 52 62 6d bb
       -0.0367585 -0.054110397 0.016498914 -0.0036221934
000030 03 57 06 3c 6a 40 09 3d fa dc 0a bd 57 42 e4 3c
       0.008199456 0.033508696 -0.033902146 0.027863665
000040 fd 2c 5b bd 1d 1c 1c bd 08 82 44 3d 14 e1 93 3c
       -0.0535097 -0.03811275 0.04797557 0.018051662
000050 10 bf 0d bd bf 9f aa 3c 9e 32 a8 bc 58 73 ba bb
       -0.03460604 0.020828126 -0.020531949 -0.0056900196
000060 68 f7 0b 3d 4c f4 5d bd c1 85 d5 3c c8 d9 d5 bc
       0.03417149 -0.054188058 0.026064755 -0.026104823
000070 82 4a 86 bc a3 6a 68 bd 7f ba 70 3c fd 8f 6a bc
       -0.01639295 -0.05674232 0.014692902 -0.014316556
000080 77 5e ca bc 2a 3c 37 3d 1b 2e a4 bd 2f d1 89 bb
       -0.024703247 0.04473511 -0.080166064 -0.004205845
000090 39 58 8c bc 4b 86 41 3c fd 0a 81 bd 83 ed 4d bd
       -0.017131912 0.011811803 -0.06300924 -0.050275337
0000a0 e7 10 c5 bc a6 dd bb ba 9f 9d 81 bd f2 89 42 bc
       -0.024055911 -0.0014333024 -0.06328892 -0.011873709
0000b0 b6 92 aa bd e2 2b 61 bd d2 88 0a 3d 2e e7 c0 bb
       -0.08328764 -0.05497349 0.03382189 -0.0058869338
0000c0 d8 fc 45 bd 0a 9d a1 bd 57 32 f4 bd a2 22 71 bd
       -0.048336834 -0.07891281 -0.11923664 -0.05887092
0000d0 e4 bc 42 bd 20 08 24 bc 84 0a 06 3b 0b 2f a0 ba
       -0.04754342 -0.010011703 0.0020453045 -0.0012221051
0000e0 ed 2c d5 bd 2e ee e2 bc 08 a5 4d bd 93 67 53 bd
       -0.104089595 -0.027701464 -0.050206214 -0.051612448
0000f0 9d 68 f1 bc f0 b1 88 bd 2b 08 a7 3c 20 10 8e bd
       -0.029468829 -0.06674564 0.020389637 -0.06936669
000100 f6 b9 ec bb bf da 47 bb ff 25 ac bc 44 37 a2 3b
       -0.0072243167 -0.0030495373 -0.021014212 0.004950436
000110 c2 dc 18 3d 46 79 37 3d c9 b6 7f 3c 90 8b 6f bd
       0.037319906 0.04479339 0.015607544 -0.058482707
000120 30 0c d7 bc 05 75 10 be 0a c8 af 3b 24 1d 5f bd
       -0.026250929 -0.1410714 0.0053644227 -0.05447115
000130 bf 52 4a bd 80 7e d8 3c 1f fd 43 bd 96 9a 55 bd
       -0.04939532 0.026427507 -0.047848817 -0.052149378
000140 2b 7b b5 3b 90 39 ef bc 4d 95 80 bd 07 71 0c bd
       0.0055383644 -0.029202253 -0.06278477 -0.03428748
000150 1a 9c de bc 1a 63 49 3d 27 43 82 bc c3 90 8e bc
       -0.027174044 0.049166776 -0.015901161 -0.017403012
000160 51 9d 20 3c ce ca cb 38 12 b0 3d 3c b4 d1 47 bd
       0.009803132 9.7175696e-05 0.011577623 -0.048783973
000170 31 d0 bc bd 8a 79 85 bd 40 3f 49 3b d9 3f 10 3b
       -0.09219397 -0.06517322 0.0030707866 0.0022010712
000180 ed ba 8f bd b4 e3 80 bd 2d 9b 5d bd 39 32 90 bd
       -0.07018075 -0.06293431 -0.054103065 -0.07040829
000190 f1 f5 ab bc a9 18 ec 3c 17 bd a6 bd 1b 55 94 bc
       -0.020991297 0.028820353 -0.08141535 -0.018106988
0001a0 b0 89 11 3d 20 35 e1 bb 37 ab 7d bd 6a 9a 8a bd
       0.0355317 -0.006872788 -0.06193086 -0.067677334
0001b0 c3 e0 af bd fb 76 7c 3c d1 80 85 bd 38 60 d8 bd
       -0.08587792 0.0154092265 -0.065187104 -0.10565227
0001c0 6b 8f 2d bc 96 17 ec 3c fe 47 0c be aa 2c 6d 3d
       -0.010593276 0.02881984 -0.13699338 0.057903923
0001d0 ee 3e 8e ba c1 ce 18 3d 7e a0 73 ba 9a 6b 70 3c
       -0.0010852495 0.03730655 -0.00092936296 0.014674092
0001e0 2c 4a 19 3c 1b c9 2d bc ef 66 83 3c 24 48 e8 bc
       0.009356063 -0.010607029 0.016040293 -0.028354712
0001f0 43 a3 fd bc 70 70 6c bd 40 0e 00 bd 1f 22 83 3b
       -0.030961638 -0.057724416 -0.03126359 0.0040018703
000200 02 6f 11 bd 22 9c 41 3d 0a 87 03 bd 27 1f 68 3c
       -0.035506256 0.04726804 -0.032111205 0.014167584
000210 00 57 c0 bc 57 ac 82 ba c2 e3 1f bd e7 e2 0e bd
       -0.023478985 -0.0009969574 -0.039035566 -0.03488436
000220 4e 56 a0 3c 81 b3 a7 bd d2 3b b2 bc 18 38 9c bc
       0.019572403 -0.081885345 -0.02175704 -0.019069716
000230 8e d7 5d bd 58 b8 ad bd b6 32 56 3c aa b4 7d bc
       -0.054160647 -0.084824264 0.013073614 -0.015484968
000240 17 4e 89 bd a8 d0 65 bd 46 c8 04 bd 1d 35 4b bd
       -0.067043476 -0.056107193 -0.032417558 -0.0496112
000250 3f f4 4c bc a7 77 f0 3c e7 82 3b 3d cd 13 69 bd
       -0.012509405 0.02935393 0.045779135 -0.05690365
000260 39 3f ba bd 29 aa e9 bc 62 95 c7 bc e3 9d 40 bd
       -0.0909409 -0.028523521 -0.024363223 -0.047025573
000270 07 6c 85 bc 6e 6d fe bc 06 a3 22 bd a5 f3 7e bb
       -0.016286863 -0.03105804 -0.039706253 -0.0038902548
000280 1e 6f 4a bb 55 47 c3 bd cf 37 01 bd 11 91 24 bd
       -0.0030888985 -0.0953509 -0.031547364 -0.04017741
000290 93 db 86 3b 30 ec d5 3b fd 70 20 3c 30 e8 0a be
       0.0041155308 0.0065284 0.0097925635 -0.13565135
0002a0 2f 5c 8d bc 86 39 ef bc dd dc 2f bd bd 73 1b bd
       -0.01725587 -0.029202234 -0.04293524 -0.037952174
0002b0 b6 72 fb b9 92 37 70 bd 14 5c 8b 3c 39 37 c8 3c
       -0.00047959917 -0.058646746 0.01701168 0.024440395
0002c0 71 bd 57 bd a8 89 02 3d 48 e0 77 3c f2 2a 1a bd
       -0.0526709 0.03186956 0.015129156 -0.037638612
0002d0 20 64 8a bd c1 08 ff ba e2 d3 96 bd 39 da 00 3c
       -0.067573786 -0.0019457565 -0.07364632 0.007864528
0002e0 03 08 f3 3c e8 95 e0 bc a5 06 c7 3c cd 1f 73 bd
       0.029666906 -0.02741523 0.02429516 -0.0593565
0002f0 a9 ce 1a bd 2d 78 82 b9 4c 1e 53 bd f1 97 31 bd
       -0.037794743 -0.0002488507 -0.051542565 -0.043357793
000300 50 23 aa 3b a4 ba 48 bc d2 af 01 bd d6 a4 cd bc
       0.005192198 -0.01225153 -0.031661816 -0.025103014
000310 90 20 36 bd 15 f7 1b be 09 a4 08 3d 93 f6 fd 3c
       -0.044464648 -0.15230973 0.03335956 0.031001365
000320 07 0f 8e bc 75 e8 b6 bd 49 16 84 bd d7 f6 c0 3c
       -0.01734115 -0.089310564 -0.06449563 0.023555202
000330 ff 2b 91 bc cf 34 c1 3a 56 9f 2c bd ba b0 2c bd
       -0.017721174 0.001474047 -0.042144142 -0.042160727
000340 4b 47 84 bd 80 4e 61 bc f8 dd 80 3c 11 44 1d 3c
       -0.064589106 -0.013751626 0.015730843 0.009598748
000350 58 4e 9f bd 47 7a 54 3c 0f 8e 6a bd bb d5 cd bd
       -0.07778615 0.012968606 -0.057264384 -0.100505315
000360 aa 6b e6 3c 6c 7e 07 bd ee aa 06 bd be e8 40 bd
       0.02812751 -0.03307955 -0.032877855 -0.04709696
000370 28 a4 3b bd 8b bc cd 3b 6e 87 3c bd 46 a0 a4 bd
       -0.04581085 0.0062785796 -0.046027593 -0.08038382
000380 0f 4e 8e 3c 7d 27 e7 3d 18 d7 5a bd cc 84 52 bd
       0.017371206 0.11286829 -0.053427786 -0.051396176
000390 05 03 ac ba 69 50 68 3b cf 13 84 3a de 2b fd 3a
       -0.0013123458 0.0035448319 0.0010076704 0.0019315442
0003a0 0a cd f7 bc 4e 67 91 bd 8b 1b b2 bc 48 57 31 bd
       -0.030249137 -0.07099782 -0.02174165 -0.04329613
0003b0 a1 25 f2 3c 9d 32 9a bc 9b 31 c7 bd 6a 23 ef 3c
       0.029558958 -0.018822962 -0.09726258 0.029191691
0003c0 83 8c a8 bd 9e d5 85 3a f9 67 18 3d f8 6f d1 bc
       -0.082299255 0.0010210758 0.03720853 -0.025566086
0003d0 86 80 24 bd da fd 5a bd 30 a8 f2 ba 28 ad 84 bd
       -0.040161632 -0.053464748 -0.0018513259 -0.064783394
0003e0 75 00 da 39 e0 1c 72 bd e6 01 ae 3c 2f 9e 42 bd
       0.0004158054 -0.05910957 0.02124114 -0.047514137
0003f0 b0 79 0c 3d ac 25 2a 3c be 82 f4 bc 85 d9 04 3d
       0.034295738 0.010384958 -0.029847499 0.032434005

fc2.bias f4 [300]
000000 2c 98 4a bd 54 6f 4b bd 61 c0 0b be a6 21 d9 bc
       -0.04946153 -0.049666718 -0.13647605 -0.026505303
000010 b1 90 61 bd 98 e9 98 bd af 78 f0 bd 28 18 0c bd
       -0.05506963 -0.074664295 -0.117417686 -0.034202725
000020 91 3c 98 bc 4e 28 81 bd 9e 9f 0c be 06 37 ac bd
       -0.018583568 -0.06306516 -0.13732764 -0.084089324
000030 b5 ba e7 bd 34 92 a0 bd 7e 39 70 bd 92 26 8e bd
       -0.113149084 -0.07840386 -0.05864858 -0.069409505
000040 39 8b 04 bc 31 c7 61 bd 13 7b dd bc e5 a2 a8 bd
       -0.008089834 -0.055121604 -0.027036225 -0.08234195
000050 35 81 e0 bd 02 04 bb bd fb 18 53 bd 68 a1 b3 bd
       -0.10962144 -0.09131624 -0.051537495 -0.0877102
000060 a9 68 24 bd 4e fd 16 be 54 ee 54 bd 0b 1e ae bd
       -0.040138874 -0.14745066 -0.0519851 -0.08501824
000070 db e5 10 be f1 f7 fc bd 6e 8c e8 bd 48 df a8 bc
       -0.14150183 -0.123519786 -0.1135491 -0.020614281
000080 2a b0 c2 bd ed 60 ec bd a1 df 5b 3d 38 5b d8 bd
       -0.09506257 -0.115419246 0.053680066 -0.105642736
000090 e5 26 09 be f3 0d a1 bd 09 59 7f bd 0d ef 12 be
       -0.13393743 -0.07863989 -0.06234077 -0.14349003
0000a0 e5 c2 09 be f7 c2 e4 bd 60 87 eb bd 2c a2 9e bc
       -0.13453253 -0.11169999 -0.1150043 -0.019364439
0000b0 3c 92 bc bd e7 21 0b be b7 64 c1 bd db 8b e2 bd
       -0.092075795 -0.13587151 -0.09443038 -0.110618316
0000c0 f0 04 1a bd 5f b2 6d bd 9c 92 15 be 87 0e 5e bd
       -0.037602365 -0.058031436 -0.14606708 -0.054213073
0000d0 50 5f 29 be 18 a7 2e bd 2d 46 d7 bd f3 0d e1 bd
       -0.16540265 -0.04263982 -0.10511432 -0.10988989
0000e0 29 16 82 bd 42 e0 f0 bd b5 5b ac bd 6c d8 8e bd
       -0.06351883 -0.11761524 -0.08415929 -0.06974873
0000f0 a9 59 01 be 4a 69 74 bd e3 2b c6 bd e8 90 03 be
       -0.12631859 -0.059670724 -0.096763395 -0.12848246
000100 2b 03 d0 bd c1 22 e1 bd b2 2f 01 be 8c 32 a1 bd
       -0.10156854 -0.10992957 -0.1261585 -0.07870969
000110 0b 10 22 be ac 05 9a bd 49 16 2e bd b8 e7 6c bd
       -0.15826432 -0.07520613 -0.04250172 -0.05783817
000120 7f 2e 36 be 8c c3 55 bd 47 06 36 bd 76 76 00 bd
       -0.17791174 -0.05218844 -0.04443958 -0.031362973
000130 74 f8 ca bd 92 55 8c bd 1d b6 ad bd a1 ec 9e bd
       -0.0991067 -0.06852259 -0.08482001 -0.07759977
000140 a2 99 02 be 07 cc 39 bd d7 c4 92 bd 09 32 69 bd
       -0.12753919 -0.04536059 -0.071664505 -0.056932483
000150 95 a0 e3 bd bc 98 aa 3c 10 a4 49 bd 2b 31 0e be
       -0.11114613 0.020824783 -0.049228728 -0.13885944
000160 d8 4d 18 be bc be 8a bd 83 b7 48 bd a9 dd 83 bd
       -0.14873445 -0.06774661 -0.049003135 -0.06438763
000170 0b 54 f1 bd bf d5 1b bd 1e 5d 06 be 86 87 c7 bd
       -0.11783608 -0.03804564 -0.13121459 -0.09742646
000180 7c 7f 0d be d8 0a 45 bd bf 62 14 be cd f7 67 bd
       -0.13818163 -0.048106045 -0.14490794 -0.056632806
000190 a5 4f 5e bd a5 b0 b2 bd 91 91 e7 bd 10 c1 65 bd
       -0.054275174 -0.087250985 -0.113070615 -0.056092322
0001a0 cf bc db bd eb 3b b4 bd 1f 5b d7 bd 0f 29 a8 bd
       -0.10729372 -0.08800491 -0.10515427 -0.08210956
0001b0 33 01 7a bd 48 30 81 bd 1c 71 0c be 88 f9 b5 bd
       -0.0610363 -0.06308037 -0.13715023 -0.08885485
0001c0 89 6c f5 bd 3f e8 e0 bd 5c 78 ab bd 48 39 8e bd
       -0.11983592 -0.109817974 -0.08372566 -0.06944519
0001d0 82 48 06 bd 78 4d f4 bd 2a cb d0 bd b1 26 7b bd
       -0.032783993 -0.119288385 -0.101950005 -0.061316196
0001e0 b0 98 0b be 56 79 89 bd c7 bb 5e be 19 c4 8e bd
       -0.13632464 -0.06712596 -0.21751319 -0.069709964
0001f0 f8 ef 40 3e d4 ad 84 bd 36 00 62 bd e1 56 f8 bd
       0.18841541 -0.064784676 -0.055175982 -0.12125946
000200 9f d2 cc bd 39 44 9c bd 79 8e 66 bd 6e 4c fb bd
       -0.1000111 -0.076302 -0.056288216 -0.12270437
000210 bc 93 1b 3e 88 e7 27 be ec 3e 2a bd 71 3f f6 bd
       0.15193075 -0.16396916 -0.041563913 -0.12023819
000220 69 40 35 bd 71 bc d9 bd 90 76 57 be e8 36 e8 bd
       -0.04425088 -0.106316455 -0.21041322 -0.113385975
000230 f5 bd a0 bd 42 72 c1 bd b8 ea c2 bd 52 93 dc 3e
       -0.078487314 -0.09445621 -0.09517425 0.43081146
000240 45 40 4c bd 0d 8f af bd 34 f7 82 bd 8b 26 f5 bd
       -0.04986598 -0.08572207 -0.063948065 -0.11970242
000250 44 73 04 bd 4b 50 9b bd 5b 2f bd bd a9 9c fe 3e
       -0.03233649 -0.07583674 -0.09237548 0.49728897
000260 4e 19 d4 bd a7 90 7c bd 32 83 a2 bd a4 86 b7 bd
       -0.10356389 -0.06166139 -0.0793518 -0.089612275
000270 4d 22 b7 bd d7 ae 12 be 99 fc 2c 3e cc d1 85 bd
       -0.08942089 -0.14324509 0.16893233 -0.06534156
000280 3b 6a 2d bc f5 1e 71 bd 2c a9 a3 bd ec 5c fb bd
       -0.010584409 -0.058867414 -0.07991251 -0.12273583
000290 dc 17 a1 bd 07 52 43 be 7d f9 3e be 35 c9 f1 bd
       -0.07865879 -0.1907426 -0.1864986 -0.11805955
0002a0 88 9b b8 bc c8 a4 01 be 48 5f b9 bd ed fc be bd
       -0.0225351 -0.12660515 -0.090513766 -0.093255855
0002b0 a0 13 dc bd fe 1e c2 bd 18 d3 da bc 77 0e 48 bd
       -0.10745931 -0.094785675 -0.026711985 -0.04884192
0002c0 7c a8 e6 bd 42 7b dd bd 1c 2f e5 bd 96 90 a2 bd
       -0.112626046 -0.10814525 -0.11190626 -0.07937734
0002d0 09 75 9e bd 74 fc a5 bd 63 58 0b be b4 3e cf bd
       -0.077371664 -0.08104792 -0.13607936 -0.101193815
0002e0 1f 03 bb bd 5f 38 84 bd e9 52 b9 bd 24 2f 0c bd
       -0.09131455 -0.064560644 -0.09049017 -0.034224644
0002f0 c2 d1 37 be 1f 2b d8 bd 9d 09 a1 bd 80 c9 f0 bd
       -0.1795111 -0.105551 -0.07863162 -0.11757183
000300 47 30 93 bd c2 40 a2 bd 72 af d1 bd 6e 0f 6e bd
       -0.071869425 -0.07922508 -0.10238542 -0.058120184
000310 2f ba a7 bd 0a 15 d2 bd 2e 2c e5 bd 83 2f 6d be
       -0.081898086 -0.10257919 -0.11190067 -0.23162656
000320 2b 66 9a bd ce 4e b6 bd f8 d8 f9 bd 22 87 00 be
       -0.07539018 -0.089017496 -0.12199587 -0.12551549
000330 d8 d7 00 be 5e e5 72 bd eb bb bd bd c3 48 a1 bd
       -0.12582338 -0.059300773 -0.09264358 -0.07875206
000340 95 b7 a1 bc c1 19 11 be b7 9e f1 bd e0 bc dc bd
       -0.019740859 -0.1416998 -0.117978506 -0.107782125
000350 a0 e4 05 be e2 c5 2d be e8 c9 d0 bd 16 f5 36 bd
       -0.13075495 -0.16970018 -0.101947606 -0.044667326
000360 58 40 e9 bd 61 f0 cb bd ec b3 4a bd 28 a4 77 bd
       -0.11389226 -0.09957958 -0.049487993 -0.060459286
000370 3b 4c fc 3d 7c 0f 90 bd 60 bd 05 bd 45 4d 10 bd
       0.12319227 -0.070342034 -0.032651305 -0.03522994
000380 58 92 c7 bd 06 2c bf bd 51 8b 6c bd 33 75 c7 bd
       -0.0974471 -0.09334569 -0.05775005 -0.09739151
000390 e0 94 99 bd c3 42 8a bd 56 0f 5a bd 1c 69 8f bd
       -0.07499099 -0.06751015 -0.05323728 -0.0700247
0003a0 ed ea 9d bd db d8 a1 bd b5 1e d7 bd f3 c3 9b bd
       -0.07710824 -0.0790269 -0.10503904 -0.07605734
0003b0 eb f2 fe bd af e1 ff bd 0f 1c 22 bd 13 30 48 bd
       -0.12448677 -0.124942176 -0.03957754 -0.048873972
0003c0 43 a3 18 bd bf 7c b9 bd 05 30 6d bc 0d f6 6c bd
       -0.037265074 -0.090569966 -0.014476781 -0.05785184
0003d0 6f 7a 38 3f 05 8e 3c bd c8 4c c8 bd 8c b9 bd bd
       0.7206182 -0.046033878 -0.0978027 -0.09263906
0003e0 f4 2d 84 bd fa 41 ac bd 90 1b e4 bd 29 46 33 bd
       -0.06454077 -0.084110215 -0.1113807 -0.04376808
0003f0 ac e9 d6 bd ab 28 78 bd 5b d3 99 bd fb bd d7 bc
       -0.10493788 -0.06058566 -0.07511016 -0.026335707

fc3.weight f4 [1, 300]
000000 60 44 d8 3b d9 81 0c 3c b2 2f 52 3c 61 b7 d5 bc
       0.006599948 0.00857588 0.012828754 -0.026088418
000010 28 e8 84 3c 2c 7c 66 3c 5d 49 db bc 29 ce ac ba
       0.016223982 0.014067691 -0.02676838 -0.0013183999
000020 c7 35 8b 3c 51 2c e4 3c 0b e3 bf bc 79 7b 98 bc
       0.016993416 0.027853163 -0.023423692 -0.018613564
000030 2d 04 f5 bb ee f1 05 3c 99 d3 82 3c 41 96 de 3c
       -0.0074773044 0.008175356 0.015970038 0.027171256
000040 33 44 76 ba 1c 36 cd 3b f2 d5 4f 3c 9a f0 00 bc
       -0.0009394318 0.006262554 0.012685286 -0.007869864
000050 25 22 5a 3c ec 8d 5d 3c 22 24 9d 3c 24 32 b5 bc
       0.013313805 0.013522606 0.019182269 -0.022118635
000060 33 43 e1 bc d0 3c b3 bb 1b 8f 5c bc e6 1d 41 3b
       -0.027497863 -0.005469896 -0.013461853 0.0029467284
000070 c6 02 49 bc 0c f8 2b ba ba f6 0c 3c e2 9d e0 b9
       -0.012268728 -0.0006560094 0.008603746 -0.0004284224
000080 9d 6e 0a 3c 6c 57 31 bc 7d 85 0e 3d cc 33 ac bc
       0.008449224 -0.010824066 0.034795273 -0.021020792
000090 a6 e1 79 bc be 26 ad bc 13 b5 70 3c 40 13 b0 ba
       -0.015251553 -0.021136638 0.014691609 -0.0013433471
0000a0 51 1a 85 bc cd 82 f3 3b 49 06 ca 3a fc 9d c8 bb
       -0.0162479 0.007431364 0.001541325 -0.006122349
0000b0 ce ca ba bb 46 3c 80 bb dd 62 9a 3c 29 12 3c bc
       -0.0057004457 -0.003913435 0.01884597 -0.011478939
0000c0 18 88 25 3b 0e 28 91 3c ff 0a 83 3c 5e 7c 9b bc
       0.002525812 0.017719295 0.015996454 -0.018980201
0000d0 6d e6 48 3c 9d 0b 71 3c d3 86 22 3c b1 11 d2 3c
       0.012261969 0.0147122415 0.00991984 0.025643202
0000e0 36 c6 29 bc e3 9f ed 3c 71 6d a8 bb d3 19 cd bc
       -0.010362199 0.029006904 -0.0051399996 -0.025036728
0000f0 d2 8e a9 3c 20 3f 61 3c 61 64 02 bc 68 6c 24 bc
       0.020697985 0.01374796 -0.0079585025 -0.010035612
000100 2f e2 02 bc 03 fa 85 3c 08 3e 0d bc 21 11 f8 b9
       -0.007988497 0.016354566 -0.008620746 -0.00047315008
000110 6d 2c b6 3c cf e3 74 bc 73 a1 c5 3b 4f c2 f9 3c
       0.02223798 -0.014946892 0.006031209 0.030488161
000120 29 1d 3b 3b ca b1 71 bb 21 77 a6 bc fb 5f 87 bc
       0.0028551316 -0.0036879652 -0.020320477 -0.01652526
000130 bb 44 71 3c 3f fb 05 3c 63 5b 2d 3a 77 79 30 b9
       0.014725859 0.0081775775 0.0006613044 -0.00016829917
000140 fa ce dc 3c cb 5e 81 bc bf 6e 3b 3c 4a 07 61 3c
       0.026954163 -0.015792271 0.011439978 0.013734648
000150 8d 41 cc 3c 62 94 e3 bc 0b 56 12 3c 60 98 11 3c
       0.0249336 -0.027780715 0.008931647 0.008886427
000160 e3 41 82 bc 1a 3a be bc f2 83 05 3c 5d 0e 78 3c
       -0.015900558 -0.023221064 0.008149134 0.015140143
000170 76 6b f2 3c db de 8e 3c e9 3b 6a bc b4 d0 09 3c
       0.029592257 0.01744025 -0.01429651 0.008411575
000180 f0 44 35 3c 9c ea 9b bb fe 44 96 3c bb bc d6 bc
       0.011063799 -0.004758192 0.018343445 -0.02621304
000190 66 de 19 3b e9 2d e9 3a 65 f9 af bc 22 f2 0f bd
       0.0023478507 0.0017790172 -0.021481225 -0.035143025
0001a0 15 f7 d9 bc 18 86 41 3c 73 01 fa 3b b8 47 a5 bc
       -0.026607076 0.011811756 0.0076295673 -0.0201758
0001b0 cd e0 63 bc c9 3f a6 3a aa ab a3 3c ec 61 20 3c
       -0.013908577 0.0012683804 0.019979317 0.009788971
0001c0 6c de aa bc 27 67 cb 3b f3 33 74 3b 65 61 a5 bc
       -0.020858012 0.006207365 0.003726241 -0.020188043
0001d0 15 d8 32 bc fe a9 35 bc 42 4c 4e ba 98 01 ea bb
       -0.010915776 -0.011087893 -0.00078696397 -0.0071413033
0001e0 d3 09 ee bb 68 e0 91 bc 09 d5 f2 3c 8e f6 e1 bc
       -0.0072643547 -0.0178072 0.029642599 -0.027583387
0001f0 4e dd 14 bc ed eb ac 3b 9e b0 c4 bc 46 1f 76 3c
       -0.009085966 0.005277148 -0.024009999 0.015022105
000200 ad 37 3e bc 16 93 78 3b 79 d0 bd bc 0d 32 4e 3c
       -0.011609954 0.0037929467 -0.023170697 0.012585175
000210 c6 e1 90 bc 88 59 48 3c b2 5f cf bc 55 65 a4 bc
       -0.017685782 0.012228377 -0.025314186 -0.02006785
000220 a3 12 c2 bc 93 f6 4e 3b 7e 1d 96 bc 85 77 f2 3b
       -0.023690527 0.0031580075 -0.01832461 0.0073995017
000230 b3 2d 65 3b 73 b2 ff bb ad e0 85 bc 83 aa 27 3c
       0.0034969866 -0.007803255 -0.016342485 0.010233524
000240 7c 94 4d bc 52 d9 a5 bc 43 c6 dc 3b 33 59 bf bb
       -0.012547608 -0.020245228 0.006737502 -0.005839491
000250 f3 a7 03 3b c5 f3 7f 3c db cd 91 3b a6 a1 14 3c
       0.002008912 0.015622084 0.0044495887 0.009071743
000260 b3 54 a2 bc 31 55 2a bc 37 88 e8 3c f3 8a 56 bc
       -0.019815778 -0.010396288 0.028385265 -0.0130946515
000270 eb cf b0 3a 55 42 05 3c 17 59 56 3c aa a9 ec bc
       0.0013489699 0.008133491 0.013082764 -0.028889496
000280 a0 a0 3f 3a fc bc cc bc e3 f2 07 3c 17 dc cc 3c
       0.0007310007 -0.024992459 0.008297655 0.02500729
000290 6a 83 d4 bb 9f 75 2a bc b0 70 24 3a e0 76 55 3c
       -0.0064853923 -0.01040402 0.0006272895 0.01302883
0002a0 28 cc fa bb f7 7b d7 37 0c 92 86 bb cf ce 26 bc
       -0.007653732 2.5687723e-05 -0.0041067656 -0.010181143
0002b0 ab 79 b6 bc bc da da 3b 91 4d 13 3c 78 00 20 3c
       -0.022274813 0.006678907 0.008990661 0.009765737
0002c0 8b 81 1c bc 27 88 3b bc ab 81 7f 3c d2 3c 8d bc
       -0.00955237 -0.0114460355 0.01559488 -0.017240915
0002d0 8d fb 32 3c a2 25 89 bc 6b f1 b3 3c a4 52 ed 3c
       0.010924232 -0.016741578 0.021965703 0.02897007
0002e0 64 96 4a 3c dc 4f ee bc de 59 c2 bc e5 3d d3 bb
       0.0123649575 -0.029090814 -0.023724493 -0.0064465874
0002f0 8f ab a3 3c 17 24 8d 3c 3b be ab bb e8 f3 d6 bb
       0.019979266 0.017229123 -0.005241183 -0.0065598376
000300 24 ea 1e 3c 20 ae d8 bc fb 19 4b 3c eb 8d 51 bc
       0.009699378 -0.026450217 0.012396331 -0.012790184
000310 d5 86 cf 3b 80 2b 18 3c 00 9d a0 bc 73 ed a3 bc
       0.006333212 0.009287715 -0.019606113 -0.020010686
000320 56 1b 32 3c e2 59 4c bb 82 5a 93 3c f6 9b b7 3c
       0.010870775 -0.0031181504 0.017987493 0.022413235
000330 47 3c 8f 3c f1 ab 71 bd 7a d0 97 3c d2 2c f6 3a
       0.017484797 -0.059001867 0.018532027 0.0018781668
000340 44 1b 8d bc 58 26 a2 3a 4b 0c 25 3b 48 7a 33 3b
       -0.017224915 0.0012371046 0.002518433 0.0027386118
000350 47 86 5a ba 1b 3b 63 bc 5d f9 d9 3c 46 58 ea 3c
       -0.0008336049 -0.013869072 0.026608163 0.028606545
000360 6b 00 bb 3c 59 f6 24 bc 7e dc a5 3c 69 00 2b bb
       0.022827348 -0.0100684995 0.02024674 -0.0026092774
000370 7d 0a b7 bc ae 34 8b 3b 2e fa 5f 3c 89 12 dc 3a
       -0.022343868 0.0042482233 0.013670487 0.0016790192
000380 ba 13 4f 3b 17 5d 15 bc e6 8f ea 3c 1d 7e a2 bc
       0.0031597451 -0.009116433 0.02863307 -0.019835526
000390 ee 0e 7d ba 0a 0a ee ba 71 0b d0 3a 06 a2 b8 bc
       -0.0009653409 -0.0018160951 0.001587255 -0.022538196
0003a0 9d ad 9b b9 bf 29 4a 39 bc ae c9 3c 0d 93 0d 3b
       -0.00029693256 0.00019279773 0.024619453 0.0021602542
0003b0 0c f4 46 3c 85 b5 b3 3c a1 5c b1 bc ea ea ad bc
       0.012143146 0.021937141 -0.021650614 -0.02123018
0003c0 fa b6 9d bc 02 26 0f ba ea 58 57 bc fd b9 87 bc
       -0.01925229 -0.00054606807 -0.013143757 -0.016568178
0003d0 89 93 b1 3b ee d9 b1 ba ba 2e c2 bc 8e 9f f9 3b
       0.005419199 -0.0013568976 -0.023703922 0.0076178974
0003e0 6b a2 ce bb 3a ce ab bb e8 31 d3 3c 26 fa 47 ba
       -0.006305983 -0.00524309 0.025780633 -0.00076285226
0003f0 06 51 21 bc ef d3 64 bc 67 f1 77 3c 6f 40 e7 3b
       -0.009845978 -0.0139665445 0.015133238 0.0070572416
