checkpoints/agent1_checkpoint_actor.pth (torch_old, 524603 bytes, 6 tensors)

fc1.weight f4 [400, 24]
00000000: e1f1 c3bb 9688 07be 3e2b b13c 19ee bdbc
00000010: 2411 303e 1580 e1bd 7097 c73c b515 3fbc
00000020: 467b 43bd 6f8c 43bd cfd9 4ebd 9f8c 87bc
00000030: d77b 473e 619f 89bd 6304 43bd b934 8e3d
00000040: a77c a3bc c416 f4bd fbfa 5b3c a7f3 f63b
00000050: 8b38 183e 43a6 71bd 61ec bd3c 44f9 a43d
00000060: 6da1 b13b 3f03 41bc d4fa 9c3d 2a64 493d
00000070: ff45 b93b eb6e 17be 68c5 2e3d 16d5 cf3d
00000080: 3990 1dbd 33c7 c6bd 33e7 2f3d 2de3 2ebd
00000090: d3e1 81bd aefb cc3b cdc7 27bd 492f 7abd
000000a0: cea0 e03b 4729 36bd 6522 d93c a735 f13c
000000b0: 0637 a13d bf9f ed3c 72a5 a4bc 4e94 1d3d
000000c0: a1fe 993b c077 13be 3d55 083d 56ad 51bd
000000d0: 585d 91bd 3c5b 5abd 3b75 d0bc 6a0f a4bd
000000e0: 23b0 923d 3f29 febd 8b07 df3c 1a6d 9dbd
000000f0: 98e1 42bc fc95 c0ba 96ba 703a b6ee 48bd
00000100: 1d2a 38bd 5cfc 1bbe 7af7 873c d1e8 5cbd
00000110: 9e2d a9bd 1f58 80bc d554 9b3c 6b9b d0bd
00000120: f563 15bb 3887 663e 06a8 bf3c 1387 24bd
00000130: 4bdc 06bd e216 463d fedf af3c b295 b33c
00000140: 21e2 033d 7528 2a3e 7a97 cb3c a3c9 0f3e
00000150: 4b1b c1bd 00fd 003e 6569 7c3d 0854 cc3d
00000160: 3567 773d bd8b 713e 772e d73a ace1 4d3d
00000170: 7424 b8bd abad 8d3d 6d21 cbbc 4e44 ef3d
00000180: 87a2 dc3c c362 88bc 1d15 393d bbb7 56bc
00000190: b02d a43b 2d91 f03c 8b74 28bd f75c 8fbb
000001a0: 7057 0ebd d744 88bd bd82 77bd a73f c5bd
000001b0: 3297 0cbd 37cc 5abb fc00 b0bd de1a 02be
000001c0: 9e6e 4dbc 77e0 393b e5a5 f93c cafc 20be
000001d0: 8928 173d 478b 00bd 36e7 933d 570f ffbd
000001e0: 8c6d d8bb 54f8 e93d 9ad0 7bbd 4cfd 963c
000001f0: 45e8 c3b9 3701 e8bd b698 02bc 492e 1b3c
00000200: b1c6 03bd 14a0 ab3d 6753 563d 963a efbc
00000210: 1107 d83c 33e0 6bbe 2b68 01bd 2a6b f03b
00000220: 1652 57bd ce76 843d 325c 8fbd 605d e0bb
00000230: 3719 edbc 26dd 9fbe 7e0d aebd 5687 873d
00000240: 1786 95bd fe8e 023e 679a 42bd 4866 123e
00000250: 3a18 21bc b25d 8dbb fcfe dbbc 24d6 bd3d
00000260: 2e2e b1bd da8b 5a3d 5a18 183d 826e a0bc
00000270: 3fb5 99bc 670e abbc d0d1 003d c392 b8bc
00000280: 8a63 66bc dc48 e43d 592e 553c db28 6c3d
00000290: 21ed 9b3c ddfc 0ebe e4fb c2bc 5e95 7abc
000002a0: 17b0 4abd 4845 913d c303 72bc fbc1 e13d
000002b0: c959 a83d 42e3 a3bc 0c70 7e3d c847 fc3d
000002c0: dcb5 82bd 021b 0f3e 82eb 0939 6a35 0f3d
000002d0: 8a10 413c a2c7 cf3d 7e47 bebc a565 383d
000002e0: d766 07bd ab46 9c3d 9969 aa3c 38ad 003d
000002f0: 4232 8f3a 6af7 0f3e 314a b03c 2942 843c
00000300: 3656 023d 7204 e1bc 74a5 2ebc 547d 173b
00000310: 51d1 e53d ee3f 56bd 544a 44bd c197 b6ba
00000320: 2d41 3dbc b3cc 26be 9109 82bb 4ea6 fd3d
00000330: b63c a7bb 7176 e33d b001 5f3d b1b7 083e
00000340: 0c7d 11bd a532 6cbd d6ca 8dbd c2fb 933d
00000350: 29b2 fabc 726c aa3d 5229 88bc aef0 bf3c
00000360: f229 ca3d 1dae 813d 63a0 e83c e927 3f3d
00000370: 3304 403c 8f12 34be 0d10 4f3c 76ba 6c3d
00000380: fff8 39bd 54f0 0abd 6020 c43c 35a0 c0bd
00000390: 4909 f4bd 1b5b 03bd 2212 5ebd 72d1 e3bd
000003a0: ae04 0e3c 1031 63bd 5d4f a13c f508 d53c
000003b0: 7d18 37be b41c 013d e919 003d a19b 963c
000003c0: 069a 10bd bf2b 943d 1290 a23c e414 153d
000003d0: 32d4 debd a4ae 173e 3c22 bf3b c903 983d
000003e0: 0bc4 7f3b 6975 0a3e 306d c7bc cf64 18bd
000003f0: 05d8 6fbc ad95 043c db93 89bc 4b38 eb3c
-0.005979762 -0.13235697 0.021627065 -0.023184823 0.17194039 -0.11010758 0.024364203 -0.01166289
-0.047724985 -0.04774135 -0.050500687 -0.016546546 0.19480835 -0.06719852 -0.047611605 0.0694365
-0.0199569 -0.11918405 0.013426538 0.00753637 0.1486532 -0.05899645 0.023184003 0.08055356
0.005420855 -0.011780559 0.07665029 0.04916779 0.005654096 -0.14788406 0.04266873 0.10148065
-0.03846762 -0.09705963 0.042945098 -0.04269712 -0.06341901 0.0062555885 -0.04096203 -0.06108025
0.006855107 -0.04447296 0.026505658 0.029444529 0.07871823 0.029006837 -0.020098422 0.038471512
0.0046995436 -0.1440115 0.033284415 -0.051190697 -0.07097882 -0.053309664 -0.025446525 -0.080107525
0.07162502 -0.12410211 0.027225276 -0.07686825 -0.011894606 -0.0014693136 0.0009183077 -0.049055777
-0.044962037 -0.15232986 0.016597498 -0.05393297 -0.08260654 -0.01566702 0.01896135 -0.101858936
-0.0022795175 0.2251252 0.02339555 -0.04016788 -0.03292493 0.048361667 0.021469112 0.021921966
0.032198075 0.16616996 0.024852503 0.14041762 -0.09429034 0.12596512 0.06162395 0.09976965
0.06040116 0.23588462 0.0016417046 0.050264046 -0.08991328 0.0691789 -0.024796212 0.1168295
0.026932968 -0.016648656 0.04518615 -0.013105328 0.005010329 0.0293661 -0.04112677 -0.004375096
-0.034751356 -0.06653755 -0.060427416 -0.09631281 -0.03432388 -0.0033385882 -0.08593938 -0.12705562
-0.01253858 0.0028362551 0.030474612 -0.15721431 0.03690389 -0.031382825 0.07221834 -0.12454098
-0.006604856 0.11424318 -0.061478235 0.018431328 -0.00037366353 -0.11328357 -0.007970979 0.009471484
-0.03217191 0.08380142 0.052325632 -0.02920274 0.026370557 -0.23034744 -0.031593483 0.0073369937
-0.052568518 0.06467973 -0.07000007 -0.0068470687 -0.028942687 -0.3122341 -0.08498667 0.0661761
-0.07300966 0.1274986 -0.04751053 0.1429683 -0.009832436 -0.004314148 -0.026854984 0.0926936
-0.08651386 0.05335603 0.0371326 -0.019583944 -0.018763183 -0.020880891 0.031450093 -0.022530919
-0.014061818 0.11146709 0.013011538 0.05765615 0.01903397 -0.13963647 -0.023801751 -0.015294401
-0.04948434 0.070932925 -0.014771405 0.11023327 0.0822025 -0.020005826 0.062118575 0.12318379
-0.06382343 0.13975146 0.00013153072 0.03496305 0.011783728 0.10145499 -0.02322745 0.04501881
-0.03305706 0.07630666 0.020802306 0.031415194 0.0010925012 0.14059225 0.021519752 0.016144829
0.0318205 -0.02746794 -0.010659564 0.0023115473 0.112215646 -0.05230706 -0.047922447 -0.0013930724
-0.011551184 -0.16289024 -0.0039684256 0.12385236 -0.005103673 0.11106575 0.05444497 0.13351323
-0.035519645 -0.057665486 -0.069234535 0.07225753 -0.030602532 0.083214656 -0.016621266 0.023430195
0.09871282 0.063320376 0.02839679 0.04666892 0.011719751 -0.17585205 0.012638104 0.05779501
-0.045403477 -0.0339206 0.023941219 -0.09405557 -0.119158335 -0.032069307 -0.05421651 -0.11123933
0.008668108 -0.05546671 0.019691164 0.026005248 -0.17880435 0.031521514 0.03127471 0.018384757
-0.03530314 0.072349064 0.019844089 0.036396876 -0.10880317 0.14812714 0.0058329385 0.07422597
0.0039026763 0.13521351 -0.024344057 -0.037205514 -0.014638905 0.008092326 -0.016794136 0.028713366

fc1.bias f4 [400]
00000000: 424c 3bbd 998c 5c3d 96cc c63d b37c 45bd
00000010: 7420 743d 2451 ce3d 9878 0a3e 9a9d 843d
00000020: e510 413e 4c71 14be 6597 15be 39d7 66bc
00000030: 2239 0f3e f49d a1bd ee74 debc 4662 df3b
00000040: 3002 f4bd a0b2 0e3e 1b36 32bd 1127 f53d
00000050: 1493 f63c 188c 50bd 018a 08be 7309 b1bd
00000060: 274b 3f3e 4a2b 1f3e db25 9bbc 6ed0 17be
00000070: 0656 49be 163f 2e3e f0c3 f73d 2a4e 1b3d
00000080: 88c2 443e cd76 93bd b2a3 53be ca02 543e
00000090: 8398 1f3e 6eb7 7ebd 8102 a4bc 8f4c 443e
000000a0: 0a91 af3d df1a 67bc 0dbb 15be e3e2 d6bd
000000b0: 8c8d 1bbe 6f7e 6f3d 9dd6 003d 4a19 ddbd
000000c0: 7386 a83d e5bf 30bd 6302 05be 7132 123d
000000d0: 353a 8b3c 5bd6 18be 78f1 323e a770 04be
000000e0: 2557 3c3e 434f 8b3c 6594 0b3e 2bff 8cbd
000000f0: 505e 353b 75d8 dcbd 8179 403b 249e 3b3d
00000100: a82b 143e 547b 893d ce68 213e 0966 cf3c
00000110: 520f e93d 535b 253e bbfa 9e3d 266f adbc
00000120: de60 e0bd fd17 323e 918c 203e 1009 643d
00000130: 7f4a 163e 9205 683e b558 94bc 21ae a5bc
00000140: 5d09 e5bd b61e f13d 14eb 77bd 60c2 3fbe
00000150: 7497 7c3d 6726 223e 9c25 3cbe d6b9 303e
00000160: ae97 453d 181c 8fbb 8903 69be fa6f 3bbd
00000170: 1d11 df3d 6cdf d9bd 05c7 4b3d 3705 32be
00000180: bb0f 043c fbc3 1c3e 318c aa3d 8d45 25bd
00000190: 1728 31bc 5bef d6bc e07b ba3d 0dc7 1dbe
000001a0: 8ec0 613b e9c0 35be 4922 ff3d 882a dbbd
000001b0: 8106 2e3e 3e97 9d3d 268e 5dbe 8547 cf3c
000001c0: e07b edbd 2e69 66be 22b2 14be 6dab 99bd
000001d0: 9039 9cbc d764 00be e978 353e 15bb 593d
000001e0: f57d fa3d 090d d73d 81ff e43d 702f 143e
000001f0: 6cec 433d 31a7 783d 511f 343e 2268 10be
00000200: 9d3a f7bd 1c8c bfbc fb9e c53d 5291 19be
00000210: 6204 69be 5b56 9d3b 0ba3 9ebd d30b 8d3d
00000220: 6237 d73b 6570 a63d ca5a 2a3d a459 d4bd
00000230: c4f5 5c3e e5b9 4fbd c6ab 3b3e 1908 c3bd
00000240: a8bc 89bd 0304 013e 6f06 b53c aba7 18be
00000250: d449 dc3d 5a6f 88bd 7d73 42bd 99e3 2c3d
00000260: 8935 12be 2026 b13d 1478 e93d ef84 013d
00000270: ff7c 42bc 5c05 f4bd 428c 973e 0b5c c13d
00000280: e75f 883e dc89 e33d 2ff3 df3c e698 3d3e
00000290: 96b2 35bd 4889 a5bd 5f20 8ebd 8504 69be
000002a0: b773 5ebd 8b04 a73a 97f5 f73d 28e5 40be
000002b0: b89c c0bd f2de bebd 31b1 cb3b f3a3 3ebe
000002c0: 7920 29be 579c debd 2759 893d cbdc 1ebb
000002d0: e243 f8bd 5a36 f5bd 56c3 56bd cc67 2dbe
000002e0: 1301 3fbe 6859 573e bcb2 0b3e f666 263e
000002f0: 8cdc 6d3d 8601 123e 4dc3 7bbc 7a8c a93c
00000300: 3ae6 c7bd 4ee6 203e f412 463d a67f 04be
00000310: 4ab1 323e f3e1 883e ff06 03be 563e 743d
00000320: e05b aebc c0ca 403d b6d2 003e fa6f 7f3d
00000330: 57f4 16be 420e 03be 8a7a 2abe ce89 633e
00000340: c6c5 a6bd 4e71 8cbd 46c1 44be 9009 8f3d
00000350: 6c61 01be ad56 483d dbb8 0f3e 767a 7339
00000360: 68d8 9f3d ed75 323e 5f8f d43d d689 f33d
00000370: c267 65bb be37 f23c 6d1f d13c db86 9a3c
00000380: 7b36 bc3d 1940 763d 0d98 aebd da9a 53ba
00000390: 4f93 473b 3068 423d 9f4c d6bd e4ea 0dbd
000003a0: cce2 87be d8d2 853c 3e6d 003e 54b6 ba3c
000003b0: ef77 123d 52dc b33d 6ad2 23be 6e3c 1cbe
000003c0: 3118 ee3d 8228 53be 1100 583e 4fa2 8cbd
000003d0: 13f6 4dbc ef6c ffbd 3962 1cbe b31d 97bc
000003e0: 99eb 0f3e a900 3c3e f2ba 963d 4105 4c3e
000003f0: ebac fc3d 4a05 abbd f239 0fbe b1b8 2dbe
-0.045727022 0.053845022 0.097069904 -0.048214626 0.059601262 0.1007407 0.13522565 0.064753726
0.18854101 -0.14496344 -0.14608534 -0.014089399 0.13986638 -0.07891455 -0.027155366 0.006817135
-0.1191448 0.13935328 -0.04350863 0.11970342 0.03009943 -0.050914854 -0.13333894 -0.086443804
0.18681012 0.15543857 -0.01893895 -0.14825603 -0.19661722 0.17016253 0.12097919 0.03791634
0.19214833 -0.07200394 -0.20667914 0.20704189 0.15585522 -0.06218665 -0.020020725 0.1916983
0.08572586 -0.014105528 -0.14622135 -0.10492494 -0.15190715 0.058470186 0.03145467 -0.10795839
0.08228769 -0.043151755 -0.12989192 0.035692636 0.016995529 -0.1492552 0.17474926 -0.12933598
0.18392618 0.017005568 0.13630827 -0.06884607 0.0027674623 -0.107834734 0.0029369297 0.04580511
0.14469779 0.06712976 0.15762636 0.025317209 0.11379875 0.16148119 0.07762667 -0.021171164
-0.10955976 0.17391963 0.15678622 0.055672705 0.14676856 0.22658375 -0.018108705 -0.020224633
-0.111834265 0.11773436 -0.060526922 -0.18726492 0.061667874 0.15834962 -0.18373722 0.17258391
0.048240356 -0.0043673627 -0.22755255 -0.045761086 0.10891936 -0.106383175 0.049750347 -0.17384802
0.008060391 0.15309136 0.08327521 -0.040349532 -0.010812781 -0.02623718 0.091056585 -0.15407963
0.0034447047 -0.1774937 0.12457711 -0.107014716 0.16994669 0.07694863 -0.21636257 0.025302658
-0.11595893 -0.2250106 -0.14521077 -0.075034 -0.019070417 -0.12538467 0.17721905 0.05315693
0.12231056 0.10500533 0.11181546 0.14471221 0.04783289 0.06070632 0.17590071 -0.14102224
-0.120717265 -0.023382239 0.09649464 -0.14996842 -0.22755578 0.004801554 -0.07745942 0.06887021
0.0065678814 0.08126906 0.04159049 -0.1036866 0.21578127 -0.050714392 0.18327245 -0.09523029
-0.067254364 0.12599187 0.022097794 -0.1490771 0.10756269 -0.066618636 -0.04747342 0.04220924
-0.14278235 0.0864985 0.11399856 0.031620916 -0.011870622 -0.11915085 0.29599196 0.09441384
0.26635668 0.11110279 0.027337639 0.18515357 -0.044359766 -0.08082825 -0.06939768 -0.2275563
-0.054309573 0.0012742443 0.121073894 -0.18837416 -0.09404892 -0.09319867 0.006216191 -0.18617229
-0.16516294 -0.10869663 0.067064576 -0.002424049 -0.121223226 -0.11973257 -0.05243238 -0.16934127
-0.18652754 0.210302 0.136424 0.16250214 0.058071658 0.14258394 -0.015366388 0.020696867
-0.09760709 0.15712854 0.04835792 -0.12939319 0.17450443 0.26734886 -0.12795638 0.05962976
-0.021284044 0.047068357 0.1258038 0.06236265 -0.14741646 -0.12798408 -0.16648307 0.22220537
-0.08143191 -0.06857549 -0.19214353 0.06984246 -0.1263482 0.048910785 0.1403536 0.00023219906
0.07804948 0.17427798 0.10378908 0.118915245 -0.0035004471 0.029567596 0.02552768 0.018863132
0.09190079 0.060119722 -0.08525095 -0.0008072086 0.0030452793 0.047462642 -0.10463833 -0.034647837
-0.2654022 0.01633589 0.12541673 0.022792019 0.03575891 0.08782257 -0.15998235 -0.15257427
0.11625708 -0.20620921 0.21093775 -0.068668954 -0.012570876 -0.12471949 -0.15271844 -0.018446779
0.14054717 0.18359627 0.07359876 0.19923879 0.12337669 -0.08350618 -0.13986948 -0.16964985

fc2.weight f4 [300, 400]
00000000: 88bd a63d 270f 073d 8f98 2bbc 2c99 923c
00000010: c3a5 a9bd 43a4 f23c 49f7 8bbd 4635 f2bd
00000020: 5fbb a93c 52c3 893d e752 20bd 7ae0 e23d
00000030: 1e65 f83a aebd 96bb ff2f c1bd ff0e 8a3e
00000040: 92d2 05be 122d 943c d8f8 bd3c d0f7 9dbd
00000050: 1f53 d9bd 111a e9b9 3b29 d6bd f290 52bd
00000060: b218 bf39 8f27 e83c bba8 dbbc a585 abbd
00000070: 5289 853d 5bf6 83bc 1b55 b9bd 073e 953c
00000080: cfe1 a23d 0f54 87bd 23ce 4b3e b577 99bc
00000090: 7aa0 133b 0a37 bfbc ea52 e63c 3809 b83a
000000a0: 6474 753d 34ee f1bd 0260 973d 3175 c8bc
000000b0: bee8 c8bb fa0e 683d c675 97bd ced3 dbbc
000000c0: 70df 83bd c1c2 df3d 5dcc 213d c499 3c3d
000000d0: cae1 193e eb6a c13d f56f 4f3e 16b3 3a3d
000000e0: 6e31 acbc 00f3 42bd 78b0 afbb cc98 7bbd
000000f0: f085 f53d 0102 0bbe e45a fd3d a33b 333d
00000100: 9a88 ebbd e35d 443e c8f0 063c fb6b 2b3d
00000110: 6dcb d23c 8a90 1f3d 2cbd 1c3d 2f42 b1bd
00000120: be58 30bd ef6c 133c c5fb 28bd f3eb e8bd
00000130: a281 84bc 8306 f9bd fc38 e23b 7138 64bb
00000140: aa59 ccbb c4d7 3cbd 41b7 cfbd 8284 6b3d
00000150: f327 223d dd63 813c 8786 883d 17a6 c5bd
00000160: 46f9 043d 2b95 88bc 5caf 21bd fab8 d0bd
00000170: 0797 b0b9 8de8 1dbd 0f21 fcbc 6c89 dcbd
00000180: 27f7 eb3c a6a9 0abe c43d efbc 23ed 9abc
00000190: 34f5 6b3d 66a6 0a3d 2f1b 0cbe c687 b23d
000001a0: 94bd c4bd ed80 98bd cb12 ba3e 1537 c3bd
000001b0: 667f 50bd a1a1 a63d 4304 37bd a65f 57bd
000001c0: 73ce 99bd 5684 e6bd eea5 f83b 5443 80be
000001d0: 5a24 09bd 489c a0bd e938 c0bc 0493 00bd
000001e0: 37b7 57bc b7c1 e4bd ca96 1b3c 7a2b 37be
000001f0: 0e79 d8bd fc76 ef3d 13d7 04be 9ee2 afbc
00000200: 2acc 6e3c bb64 733d 1d6f e33b 7c3f debd
00000210: 0797 90bd 3300 90bd d34b 71bd 9e70 04be
00000220: 664e ef3d 7bc3 0ebd 72df 75bd e840 433d
00000230: 93ee 92bd 929e b2bd b569 d23d 08a6 1fbe
00000240: c0e4 b3bd 908b 05bd 0df0 e0bc c321 0ebd
00000250: ac21 1b3c aaed b2bc a767 0abc 0180 053a
00000260: 0621 dcbd 32a9 ab3d 8335 aabd 107c bdbd
00000270: faa7 e33d b838 063e 5fe4 0b39 8840 0cbd
00000280: deeb 04be 9202 86bc 6aa2 debd 07fd dbbc
00000290: 6197 433d 1feb fa3d 41a9 7dbd ebb8 04be
000002a0: 3172 13bd d4b0 6fbd d03b 25bd ce97 27bd
000002b0: 2c5e c13d 989f e4bc 8944 48bc f59f 6dbd
000002c0: 8f45 08bd 7b5b 27bd 909b a53d 4737 ba3d
000002d0: 8657 aabd 7570 24bd 20e8 283c 6436 0b3d
000002e0: 71b6 933d 9e09 493c 03f5 14bd ff0b da3c
000002f0: 064a 4c3c c046 8bbd d76b 7dbd cbd6 82bc
00000300: 1705 143c 0cf4 9ebd b1ad 5d3d d5ff d23d
00000310: 2e22 1f3d b99e 9abc 730e 8f3d 157b 44bc
00000320: 8843 c0bd 6efb e7bb 63f5 333d 49b4 a3bd
00000330: f692 343d 76ee 113e 78f2 d8bc f82f 1ebd
00000340: bf85 d53d d4e8 743d 296f 563e b028 32bc
00000350: b0d9 19be b636 debc c48f 8c3c 62b3 853d
00000360: faed 0d3b 9802 a13d 58fc 103e edaa cd3a
00000370: c18a b8bb 37d0 0ebe 15f9 81bd 73ed c0bc
00000380: 1d3b a9bc 2cc0 f8bc bcc8 2ebe be40 55be
00000390: 866c b5bd a546 a2bd 4d64 b33d 2777 143e
000003a0: 9287 bb3d 0eb1 b73d e17a 0b3e 6eba 9dbd
000003b0: 2960 2dbd af6f ac3d 19b4 d93d d8d2 793d
000003c0: f963 f33d 473c 153e 83e6 6fbd eb4a 113e
000003d0: 8729 863b fd57 893d 6531 9fbc ac63 6d3d
000003e0: 4fe9 a3bc 1f8a 153e af16 e3bd 2214 fe3b
000003f0: 4fca 523d fa1e d43c 96ff 97bd 4384 c53b
0.08141619 0.032973435 -0.0104733845 0.017895304 -0.0828357 0.029619342 -0.06834275 -0.11826567
0.020719228 0.067267075 -0.03914156 0.11077972 0.0018951034 -0.0046002483 -0.09432983 0.26964566
-0.13068607 0.018087897 0.023189947 -0.07713282 -0.10611557 -0.00044460644 -0.10457083 -0.051407762
0.00036448758 0.028339176 -0.026813855 -0.083751 0.065203324 -0.016108682 -0.09049436 0.018218054
0.07953226 -0.0660783 0.19902854 -0.018733839 0.0022526071 -0.023341674 0.028115708 0.0014040833
0.059925452 -0.11813012 0.07391359 -0.024469944 -0.0061312607 0.056654908 -0.073955104 -0.026834395
-0.06439102 0.10925818 0.039501537 0.04604508 0.15027538 0.09444221 0.20257552 0.045580946
-0.021019664 -0.047595024 -0.005361613 -0.061425015 0.11988437 -0.13574983 0.12370852 0.043758046
-0.11500664 0.1917644 0.008236118 0.041851025 0.025731767 0.038956203 0.038266346 -0.08655202
-0.04305338 0.00899814 -0.04125573 -0.11373129 -0.016175095 -0.12159445 0.0069037657 -0.003482368
-0.0062362747 -0.046104208 -0.10142375 0.057499416 0.03958888 0.015794689 0.06666284 -0.0965082
0.03246429 -0.016672691 -0.039473876 -0.101915315 -0.0003368186 -0.038551856 -0.030777482 -0.10768399
0.028804375 -0.13541278 -0.029204257 -0.018911904 0.05760689 0.033850096 -0.13682245 0.08717303
-0.09606472 -0.07446466 0.36342463 -0.095319904 -0.050902747 0.08136297 -0.0446818 -0.05258145
-0.0751008 -0.1125571 0.0075881397 -0.25051367 -0.033481933 -0.07842308 -0.023464637 -0.031390205
-0.01316624 -0.11169761 0.0094964 -0.17887679 -0.10569964 0.11692616 -0.1297267 -0.021470364
0.014575044 0.059422236 0.006940736 -0.108519524 -0.07060056 -0.07031288 -0.058910202 -0.12933585
0.11684875 -0.034854393 -0.060027547 0.04766932 -0.07174411 -0.08721651 0.10274068 -0.1559068
-0.08783865 -0.0326038 -0.027458215 -0.034700166 0.009468477 -0.021841843 -0.008447564 0.00050926214
-0.10748486 0.08381881 -0.08310988 -0.09252179 0.11116023 0.13107574 0.00013341148 -0.03424123
-0.12980601 -0.016358647 -0.10870822 -0.026854051 0.047751788 0.12251877 -0.06192899 -0.12961166
-0.035997573 -0.058518246 -0.040340245 -0.040916257 0.0944179 -0.027908131 -0.012223371 -0.058013875
-0.03326946 -0.040858727 0.08086312 0.090925746 -0.08317475 -0.04014631 0.010309249 0.033987418
0.07212532 0.012270359 -0.036366474 0.026617048 0.01246882 -0.06800604 -0.061870422 -0.015971562
0.009034417 -0.07761392 0.054120723 0.10302702 0.038850956 -0.018874513 0.06985178 -0.011992236
-0.093878806 -0.0070795333 0.04393519 -0.07993371 0.044085465 0.14251122 -0.026482806 -0.038619965
0.10425901 0.059792355 0.20940842 -0.0108739585 -0.15024447 -0.027125698 0.017158397 0.06528355
0.0021656738 0.07861823 0.14158762 0.0015691199 -0.005631775 -0.13946615 -0.06346337 -0.023550725
-0.02065807 -0.030365072 -0.17068762 -0.20825478 -0.0885859 -0.079236306 0.08759365 0.14498578
0.09156717 0.089693174 0.13621093 -0.07701574 -0.042328034 0.084197395 0.10630054 0.060992092
0.11884303 0.14573775 -0.058569442 0.14188735 0.004094306 0.067062356 -0.019432733 0.057956383
-0.020008711 0.1460347 -0.11088311 0.007753865 0.051462468 0.025893677 -0.07421796 0.0060277297

fc2.bias f4 [300]
00000000: bad5 b3bd c10e 9cbd cd2c 623c c4fe 7a3d
00000010: d841 c73a f269 bf3d ca2f 96bc b392 bdbc
00000020: ba3f 04bc a3f8 18bd 8b69 c9bc a22f ab3c
00000030: e4e1 03bd 82b9 9dbb e54f c6bd 93a2 d8bc
00000040: 725b 3ebd 18ad 6abd 1d8c 013c 2856 a1bc
00000050: d24f 673b b900 413c 9ced 89bd 38a4 103d
00000060: b7d0 1f3b 58a7 7f3c 0c0b 563d ede0 1b3c
00000070: 3bd5 6cbc 9051 d2bb 5303 45bd 9c2d f03c
00000080: df70 48bd 89f3 713d 41c8 00bd 36af 94bd
00000090: 13a2 b33d 046a 073c fa17 98bd c6c4 9b3c
000000a0: 1a2f 313d fa15 7d3d 09ed 843d 9f2b a23d
000000b0: 9b04 f7ba 9436 bd3d 6976 8cbd 3013 a73c
000000c0: 7fd8 8bbc df98 db3d 8904 893c a0a1 56bd
000000d0: e485 47bb 38e4 973c 6a8d d33d 65ee 543d
000000e0: 7b71 a83d d4d4 8cb9 79ee eb3c 5524 1c3b
000000f0: 5422 72bd 7b1d 54bd 3725 eabb c818 e73c
00000100: c406 91bd 0e38 bdbd b14f 1ebd 7c67 9bbc
00000110: 6eb2 9e3c 2dce 4cba f5d7 a63d 5626 343d
00000120: 245b aabc 3426 b4bc f0a2 75bd 9919 0bbc
00000130: 4e5f c3b9 171a 043d d359 363b d651 4a3c
00000140: 53a7 3dbd ca3a 443b e5be 003d 1cc2 9ebc
00000150: e82a 473d abaf a7bd 716e aabd 7c85 b8bc
00000160: d437 0d3d 6e80 92bd a621 cfbb 7bbf afbc
00000170: 49dd a7bd c144 84ba 1c95 84bd 4979 31bc
00000180: cdd1 c6bb 19b1 44bb ceb5 9c3d 21ed 9b3d
00000190: 9460 0bba b9d1 033e 1f75 9f3d 9fe7 043d
000001a0: 87ef fdba 9492 06bd aa3b 0f3d 8b19 5d3c
000001b0: 00b7 2cbb b47e e8bc 5c54 043d 32d9 e8bc
000001c0: 1f71 28bd b76c 743d 1881 00bb ab41 033d
000001d0: 2935 2f3b e6a7 a23d 8ed5 6abc 5965 223c
000001e0: 92c1 82bd 6994 e5ba 443a 023c bf91 b2bc
000001f0: 24fb 603d 5be5 43bb e571 193d 28a0 563d
00000200: 5dbc 5fbd 9f18 6c3c 17a1 c6bc f90d 8ebd
00000210: 4941 7ebc 82ad 46bb d57d 4d3b 6989 c43d
00000220: 2bc8 efbc 97d0 253b 5911 0439 871b b1ba
00000230: 3a5e edbc e839 343d 0f9d 923c d060 463c
00000240: 1eee 1dbc 6b83 ecbb a064 1c3c 51aa c4bc
00000250: d8af f53c 4f1a 15bd 42d8 95bc e647 de3c
00000260: ffaf 9f3b 8630 73bd ebcc c73b c48d f1bc
00000270: b742 3cbd e2a4 023d 6ee2 b1ba 57cb 28bc
00000280: 22e6 e0bc 76e5 b73d c6b2 77bd 54b3 1f3c
00000290: d288 9bbd 0fb4 8dbd 8679 aebc 492c bfbc
000002a0: dc63 853c 8b50 a53d 64a6 5c3c 9ae8 afba
000002b0: b03c 9dbc ce27 caba 6f83 f43c 29bc 483c
000002c0: 091e 7d3c 24f0 cbba ddcf 1d3d 8beb 55bd
000002d0: 271e 763d 6828 a73d f3db f4bc e8db 79bd
000002e0: f92d 923d facf a43d 9fb8 943c 56dd 00bc
000002f0: 9854 133d 283c 0d3d 697f 8e3b 50aa d43d
00000300: 71a4 b53b a81f bdbd a94b b8bd 3d22 4e3c
00000310: 14e4 833c e1f7 1bbb 8c3e 4c3d 7015 4bbd
00000320: 8da1 56bb 7442 8c3d 73ad 0b3d 605b 1d3d
00000330: d3a9 dbbc 724c aa3b 1009 093d 55ba d73c
00000340: 73cf c53d 32e2 1fbd 9eba 89bd d2db 96bc
00000350: 406c cdbd 8035 afbd 0d92 16bd 8940 09bd
00000360: 391c 0dbc f318 383c ce53 6f3d 0c8c 89bc
00000370: fd66 72bd 1f71 993c e876 d73b 63f2 f4bb
00000380: 2f38 813c a283 65bd 5789 5d3d 8570 cd3d
00000390: ddee db3a 3d1a 6dbd 7b90 913d 0851 383d
000003a0: bab5 89bd a82b 643b d23a 5a3d 0334 92bc
000003b0: 6be1 3e3c 81a5 8b3d 3e72 61bd 0873 873b
000003c0: 5137 9bbd 2dfd a03c 1a79 b83c e8ff 793d
000003d0: d9f2 60bd e7d1 b5bc 7a40 e93c 51ba 0ebd
000003e0: 76be 1b3d 27fd 7fbd 1beb fa3c 2a4c ccbc
000003f0: 5e05 4e3d 3929 a4bc cfd1 a7ba de69 133c
-0.087809995 -0.076200016 0.013804627 0.06127812 0.0015202118 0.09346379 -0.018333334 -0.02314124
-0.008071834 -0.037346493 -0.02458646 0.020896737 -0.032197848 -0.004813374 -0.096832074 -0.026444709
-0.046473928 -0.05729398 0.007906941 -0.019694403 0.003529538 0.011779957 -0.067347735 0.03531286
0.0024385878 0.015603863 0.05225663 0.009514076 -0.014455135 -0.0064184144 -0.048098873 0.029318623
-0.048935767 0.059070144 -0.031440977 -0.07259981 0.087711476 0.008265022 -0.07426448 0.019014727
0.04325781 0.061788537 0.06490523 0.07918476 -0.0018845977 0.092389256 -0.068585224 0.020394892
-0.017071007 0.10722517 0.016725795 -0.05240023 -0.0030444795 0.01854144 0.10329707 0.051985163
0.0822477 -0.0002686145 0.028800236 0.0023825367 -0.05911477 -0.051785927 -0.0071455496 0.028210059
-0.070813686 -0.09239207 -0.03865022 -0.018970244 0.019372191 -0.0007812705 0.08146659 0.043981872
-0.020795412 -0.021990873 -0.059969842 -0.00848999 -0.00037264306 0.032251444 0.0027824536 0.012348613
-0.04630215 0.0029942268 0.03143205 -0.019379668 0.048624903 -0.08187803 -0.08321846 -0.022524588
0.03447707 -0.07153402 -0.00632115 -0.02145361 -0.08196504 -0.0010091291 -0.06473753 -0.010832139
-0.0060674907 -0.0030012785 0.07651864 0.07613588 -0.00053168205 0.12872972 0.07786011 0.032447454
-0.0019373753 -0.03285463 0.03496901 0.013494859 -0.0026354194 -0.02838073 0.032307014 -0.02842388
-0.041123506 0.05967399 -0.0019608196 0.032045048 0.0026734567 0.0794218 -0.014333142 0.0099118585
-0.06384577 -0.0017515543 0.007948462 -0.021798013 0.054927006 -0.0029891345 0.037462134 0.05239883
-0.054622997 0.014410167 -0.024246735 -0.06936259 -0.015518495 -0.003031582 0.003135552 0.095965214
-0.029270252 0.0025301331 0.00012594963 -0.0013512232 -0.028975595 0.044000536 0.017897157 0.012108043
-0.009639291 -0.0072178147 0.009545475 -0.024006994 0.029991075 -0.036402043 -0.018291596 0.027133893
0.0048732753 -0.059372447 0.006097426 -0.029486544 -0.04596206 0.031895526 -0.001357151 -0.010302386
-0.027453486 0.08979313 -0.060473226 0.009747345 -0.07594456 -0.06919109 -0.021298181 -0.023336546
0.016282968 0.08072003 0.013467405 -0.0013420761 -0.019193977 -0.001542324 0.029847829 0.012251892
0.0154490555 -0.0015559238 0.038528312 -0.052226584 0.06008735 0.08162004 -0.029890036 -0.061000735
0.07137675 0.08047481 0.01815444 -0.007865271 0.035969347 0.034481198 0.0043486846 0.10384047
0.0055432846 -0.092345536 -0.08998806 0.012581405 0.016099967 -0.002379887 0.049864337 -0.04958099
-0.00327501 0.068486124 0.03410096 0.03841722 -0.026814377 0.0051971013 0.03345591 0.026333967
0.096587084 -0.039034076 -0.067250475 -0.018415365 -0.10030413 -0.08555126 -0.03676038 -0.03350881
-0.008612686 0.011236417 0.05842953 -0.016790412 -0.05918025 0.018730698 0.006575454 -0.007475184
0.01577386 -0.056033738 0.054086056 0.10031227 0.0016779561 -0.05788635 0.071076356 0.044999152
-0.06724115 0.003481606 0.05327875 -0.017847067 0.0116504235 0.06818677 -0.05504059 0.004133586
-0.0757891 0.019651974 0.022518683 0.061035067 -0.054919098 -0.022194816 0.028473128 -0.034845654
0.038023435 -0.062497284 0.030629685 -0.024938662 0.050298087 -0.020039188 -0.0012803617 0.008997409

fc3.weight f4 [2, 300]
00000000: 40d7 e8be 56a9 3fbd 7c9e a73d 3450 053e
00000010: 7f2f 083d 6faa c6bc bc46 51bc df14 2ebe
00000020: ab4f a83c 3e88 eb3d aac5 87bd 3069 0d3e
00000030: f6f6 963d 9293 413c bf4b cabd 4bcd 92bc
00000040: 1ced 9f3a f0a1 37bc ae43 25bc 5bba adbd
00000050: 0e2a 82ba fd82 c03d dffa 29be 2cfb 12bd
00000060: c86e da3d e54c 2d3d 8403 dcbc 555e b0bd
00000070: 2d6d a4bc 757f 703d d186 8abd 38dd b63d
00000080: c7a1 83be a2a2 863d ea41 8fbc 5068 1b3c
00000090: 1812 b63c 1d4f bebd 083d 75be 0b93 b4bc
000000a0: 7d0e 163d 2b6a 303e 0f8f 623e 1503 1c3c
000000b0: 13af e63b 81ac 843e a907 40be 88a0 7b3d
000000c0: 7381 41bd 6ce3 05bd 93a8 143e b272 37be
000000d0: 6353 b43c c8ee f8bc f4f2 313c 2339 1e3c
000000e0: 0162 b03d 02b9 b93d 4508 ec3d bf06 193d
000000f0: 3a5b 67be 20c5 f03a 6359 90be a243 853e
00000100: b1fe 3e39 eb89 92bc 912e 8cbd 7ac2 e33d
00000110: c239 23bd 85f5 8b3c 488d c63d 7765 003e
00000120: ed2a bfbd cdb6 4cbd 0f65 d83d 5de5 52bc
00000130: a799 8dbd ad44 5d3d a424 9bbb 8129 6fbd
00000140: 2ef5 34bb 66da 92bc fd33 123e 58a5 b2bc
00000150: 8e88 af3b 9653 90bd a6f3 153e a01a 86bd
00000160: 7638 883d 3417 fdbd 0a9c 93bd bd53 cb3c
00000170: f2b8 09be a252 223e 087b f33d 0fff 9ebc
00000180: b496 533d 34d7 9abe 8d34 70ba aa07 a93d
00000190: 3875 ab3c d903 b93c f2f5 0d3d 7db2 833d
000001a0: a84a 34b9 6c28 7ebc 3d04 2bbd 46d8 87bd
000001b0: 9dc7 063d 93b8 c83a 7050 ea3d 994b d8bd
000001c0: cbc5 5e3c 4253 303e fdf8 4dbd 6709 f73d
000001d0: fef2 d23c fde4 a83d 4cbc 6e3d abbe 043e
000001e0: 4236 0abc 9086 1d3e 0ab3 773c 9c1d 83bc
000001f0: c59b 523d b1d4 5dbd e597 a73d 9f05 d73d
00000200: 73aa 42bd c53a a1bd d3b2 d9bb fce8 fbbd
00000210: 75fd ccbc cd90 d73d 5f91 93bc 7795 debb
00000220: 04ca b53b 7813 bfbd 7b88 bc3c 34fd 0e3e
00000230: 13b7 98bd 1b23 8cbc 24d0 84bd bcb4 663d
00000240: d719 ca3c 4e74 bdbd 28c0 f53d 3829 ae3b
00000250: 6123 04bd 0f76 03bd fda9 a7bd 8aa0 c9bd
00000260: aff6 973b 60c4 b4bd 09db a13d f94c c1bd
00000270: 8c93 98bb 23a8 233d ae6d 433e 1774 69bc
00000280: 47a2 413e 1a42 c43b fe1d a83d 21c5 9f3d
00000290: 829c fbbd d04d c6bc f1af cdbb 787c 173d
000002a0: 6f5c 08bd 9447 823d d3c8 6cbc da25 4f3c
000002b0: 91c8 0b3e 8d19 0c3c 4923 e83d 5b29 c9bc
000002c0: 9955 073e aabd e8bd 76fb 623d 2d14 b83d
000002d0: 9c79 5d3d ae24 f53c 3d3c cf3d b730 9ebd
000002e0: 3b88 123e 1e57 bb3d 6603 d33d 8472 c5bd
000002f0: 8d81 3c3e fa30 a23d e889 28bc 9c56 d03d
00000300: aeca 4a3d 9a38 b4bd 1b19 03bc e180 68bb
00000310: 32f2 63bc 24bb 333d f7a7 393e 861b aebd
00000320: dbfb 08bd ddc7 893c 1eb5 88ba 5718 683d
00000330: afa3 8b3d ad59 c83c bf05 113e 0562 c93d
00000340: 06e7 253e 0ad1 8fbc f757 d7bd 0459 b1bc
00000350: 3b7a 6fbd ada6 e83d fe50 b6bd 0b24 f73d
00000360: 05e4 0dbe 40fb 8fbe afdb 563b 9108 06bd
00000370: 1dae 903d ab85 f2bb 04ed 12bd 991e 31bd
00000380: 7a75 22be 2ba9 83bb 297f 803d 8458 7fbd
00000390: d049 aabc 36c7 e3bd 1a70 f93d 3c16 29bd
000003a0: a361 d0bd 92e3 e7bc e9ee 273d 114a d03d
000003b0: de5f 19bd 76ac 533d 059e 0abd 389b 093c
000003c0: e532 9ebd a429 953d 49f6 8fba b91c 293c
000003d0: 64ce 81bd 6668 0a3e 8131 de3d a6e0 9a3c
000003e0: 0370 1d3e 0276 76be 543f 21bd 938e 453e
000003f0: 2ebb bb3d 22c4 723d 81c4 223d 9be4 073e
-0.45476723 -0.04679235 0.08184525 0.13018876 0.03324842 -0.024251191 -0.012773212 -0.17000149
0.020545801 0.115005955 -0.06629498 0.13809657 0.07371323 0.011814969 -0.09877729 -0.017920157
0.0012201401 -0.0112080425 -0.010086937 -0.0848281 -0.0009930746 0.09399984 -0.16599606 -0.035884067
0.10665661 0.04230966 -0.026857145 -0.086117424 -0.02007159 0.058715302 -0.067639954 0.08928913
-0.25709364 0.065739885 -0.017487485 0.009485319 0.022225425 -0.092924334 -0.23949063 -0.022042772
0.03663491 0.17228 0.22124885 0.009522219 0.0070399134 0.2591286 -0.18752922 0.06143239
-0.047242593 -0.03268759 0.14517431 -0.17914847 0.022012418 -0.030387297 0.010861147 0.009657177
0.08612443 0.090684906 0.11525015 0.03735995 -0.22593394 0.0018369295 -0.28193197 0.26028162
0.00018214692 -0.01788803 -0.06844819 0.11121078 -0.039850004 0.017084846 0.09694916 0.12538706
-0.09334359 -0.04997902 0.105661504 -0.012872067 -0.069140725 0.054020572 -0.0047345925 -0.05838919
-0.0027611959 -0.017926406 0.14277644 -0.021807358 0.0053568548 -0.07047193 0.14643726 -0.06548047
0.06651394 -0.12357941 -0.072074965 0.024820203 -0.13449457 0.15851834 0.11888701 -0.01940873
0.051657394 -0.30242312 -0.0009163104 0.08253415 0.020929918 0.022584843 0.03465838 0.06430528
-0.0001719395 -0.015512567 -0.04175209 -0.06633048 0.03290521 0.0015313796 0.114411235 -0.10561294
0.013596962 0.1721926 -0.05028628 0.1206234 0.025750633 0.08246801 0.058285043 0.12963359
-0.008435788 0.15383363 0.01511837 -0.01600533 0.051418085 -0.054157916 0.081832685 0.10499119
-0.047525834 -0.078725375 -0.006643632 -0.123002976 -0.025023201 0.105256654 -0.018013654 -0.00679272
0.005547764 -0.09329885 0.023014298 0.13963777 -0.07456794 -0.017106583 -0.06485012 0.056324705
0.024670525 -0.09250699 0.119995415 0.0053149723 -0.032260302 -0.03209501 -0.081867196 -0.098450735
0.0046375613 -0.08826518 0.07903106 -0.094385095 -0.004656261 0.03995527 0.19084808 -0.014248869
0.1890956 0.005989325 0.082088456 0.07801271 -0.12285711 -0.024207026 -0.0062770774 0.036983937
-0.033291277 0.06361309 -0.014452177 0.012643302 0.13650729 0.008551014 0.11334855 -0.024555853
0.13216247 -0.113643005 0.055415593 0.08988223 0.054071054 0.029924717 0.101189114 -0.07724135
0.1430978 0.09147476 0.103033826 -0.09640983 0.18408795 0.07919498 -0.010286786 0.101727694
0.049509697 -0.087998584 -0.008001591 -0.0035477208 -0.013912724 0.043879643 0.1813048 -0.085013434
-0.033443313 0.016818935 -0.0010429954 0.056663837 0.068183295 0.024456823 0.14162348 0.09833149
0.1620141 -0.017555732 -0.10514825 -0.021648891 -0.058466177 0.11359916 -0.08902167 0.120674215
-0.13856514 -0.28121376 0.003278475 -0.032723013 0.070644595 -0.0074011884 -0.035870567 -0.04324207
-0.15865126 -0.004017969 0.06274254 -0.062340274 -0.02078715 -0.11121981 0.12179585 -0.04128097
-0.10174873 -0.028306756 0.040999327 0.10170377 -0.03744494 0.051678143 -0.033842105 0.008398823
-0.07724551 0.07283333 -0.0010983433 0.010321789 -0.06338194 0.13516387 0.10849286 0.018905949
0.1537476 -0.24068454 -0.039367035 0.19292669 0.09166561 0.059269078 0.039738182 0.132708

fc3.bias f4 [2]
00000000: f2c5 823c f371 903c
0.015963528 0.01763246
