checkpoints/agent2_checkpoint_actor.pth (torch_old, 524605 bytes, 6 tensors)

fc1.weight f4 [400, 24]
0	0xbce076db	-0.027400425
1	0xbe08eeb9	-0.13372315
2	0x3ba4bfe2	0.005027757
3	0xbd26ff02	-0.04077054
4	0x3ce2f740	0.027705789
5	0x3dbdc2f8	0.09265703
6	0x3bfe6ee9	0.0077646864
7	0xbcef99e0	-0.029248178
8	0xbd8f7aeb	-0.070058666
9	0xbd89d6bb	-0.0673041
10	0xbc17af6c	-0.009258132
11	0xbdff2e09	-0.124599524
12	0x3d628a21	0.05530751
13	0x3e037f91	0.12841631
14	0xbbd0b182	-0.006368817
15	0xbd1e2bdd	-0.03861605
16	0xbcfa2493	-0.030535018
17	0xbe2d8549	-0.16945376
18	0xbbe7c870	-0.0070734546
19	0xbd918a25	-0.07106427
20	0x3d64b10a	0.0558329
21	0x3e1f8aa6	0.15580234
22	0x3b2fe674	0.0026840242
23	0x3afff4f7	0.0019527961
24	0xbdf3ad56	-0.118982956
25	0xbd6f0532	-0.058354564
26	0x3c5bf514	0.01342513
27	0xbd7ae5c1	-0.061254267
28	0x3dba4fc7	0.090972476
29	0xbe2b1f8c	-0.16711253
30	0xbca865e2	-0.020556394
31	0xbc127bc1	-0.008940638
32	0xbdbca413	-0.09210982
33	0xbdeb2b87	-0.114829116
34	0x3d473ac8	0.048640043
35	0xbcb41610	-0.021983176
36	0x3b7d22d2	0.003862549
37	0xbdf7e7c2	-0.12104751
38	0xbd107463	-0.035267245
39	0xbd25573e	-0.040366404
40	0xbcdddfd5	-0.02708427
41	0xbdc761ef	-0.09735476
42	0x3c3f6a87	0.011683113
43	0xbd1c0083	-0.038086426
44	0x3d009591	0.031392638
45	0xbd39e6e2	-0.045386203
46	0xbd0f08a0	-0.034920335
47	0xbcee0e33	-0.029059505
48	0x3e0158ad	0.12631483
49	0x3d0b6da7	0.03404012
50	0x3c8246ce	0.015902903
51	0xbd4304a5	-0.04761185
52	0xbccb8006	-0.02484132
53	0xbd92bdd6	-0.071651146
54	0xbd2f6cc2	-0.04282833
55	0xbd9cba39	-0.07652707
56	0x3dcf92fa	0.101354554
57	0xbc7d86e5	-0.015474056
58	0x3c64b4b0	0.013959095
59	0xbdb89431	-0.0901264
60	0xbd8252c8	-0.063634455
61	0x3bd3b70f	0.0064610313
62	0xbc4a4f16	-0.012347957
63	0xbd7f3b09	-0.06231216
64	0x3b4c0682	0.0031131809
65	0xbd5c7e61	-0.05383146
66	0x3b824ec3	0.0039766743
67	0x3ce4f1a3	0.027947253
68	0xbe335d53	-0.17516069
69	0x3bc0652c	0.0058714356
70	0x3bcfc46d	0.0063405544
71	0xbca3aa39	-0.01997863
72	0xbbec142f	-0.0072045545
73	0x3d7e30c8	0.06205824
74	0xbd94b212	-0.07260527
75	0xbdd29cef	-0.10283839
76	0xbd1eaa45	-0.0387366
77	0x3da432ba	0.08017488
78	0xbd98a3f5	-0.07453147
79	0xbd26e712	-0.04074771
80	0x3c3e7408	0.011624344
81	0x3c017322	0.007900985
82	0x3c295b05	0.010336642
83	0x3cbf4066	0.023346137
84	0x3c05deb0	0.008170769
85	0x3dccf3aa	0.10007413
86	0x3d40f4e9	0.047108565
87	0xbc8dbaea	-0.017301042
88	0x3bcb86c4	0.0062111337
89	0x3d936368	0.071966946
90	0xbd3cafa6	-0.04606595
91	0xbc79229b	-0.0152060045
92	0x3de9db60	0.114187956
93	0x3d694a5f	0.05695569
94	0xbd947cef	-0.07250392
95	0x3d525d78	0.05135867
96	0x3c8cbf38	0.017181024
97	0xbe01efae	-0.12689087
98	0x3d33e6ef	0.043921407
99	0xbd5857b8	-0.05281803
100	0xbcb878cf	-0.022518544
101	0x3c4e2795	0.012582679
102	0xbd2da2a9	-0.042391453
103	0xbd349480	-0.044086933
104	0xbc9bfbef	-0.01904103
105	0xbe109c96	-0.14122233
106	0xbc2e61ef	-0.010643466
107	0xbd8f666a	-0.07001956
108	0xbded7f85	-0.11596588
109	0xbd515163	-0.051103007
110	0xbd141902	-0.03615666
111	0xbdce5bfc	-0.100761384
112	0xbcc9acf8	-0.02461861
113	0xbdcbec56	-0.09957187
114	0x3ca3660f	0.019946126
115	0xbde3fee7	-0.11132603
116	0xbe039eb2	-0.12853506
117	0x3d10831c	0.035281286
118	0x3d7cad96	0.061688982
119	0xbda1152f	-0.078653686
120	0x3e28c6b6	0.16482052
121	0x3e2a1d0b	0.16612642
122	0x3b3531f2	0.0027648178
123	0xbd2d92d0	-0.04237634
124	0x3cc9f504	0.024652965
125	0xbe23494f	-0.15945934
126	0x3d667d73	0.05627198
127	0xbd524556	-0.051335655
128	0x3dd6319e	0.104586825
129	0x3e0901dd	0.13379617
130	0x3ddaad07	0.106775336
131	0xbdf0e854	-0.11763063
132	0x3d6191cc	0.055070683
133	0xbe47b506	-0.19502649
134	0x3cbb3ce4	0.022856183
135	0xbda612e4	-0.08109072
136	0xbbcd24fc	-0.0062605124
137	0xbc8b140a	-0.016977329
138	0xbd492185	-0.049104232
139	0xbe03aee6	-0.12859687
140	0xbdbd951e	-0.092569575
141	0xbd6c8650	-0.057745278
142	0xbd8341ac	-0.0640901
143	0xbd63a1a8	-0.05557409
144	0x38aa5e9f	8.123856e-05
145	0xbe216ef3	-0.1576498
146	0xbcbc5d57	-0.022993727
147	0x3d5c1cb4	0.05373831
148	0x3d47be49	0.048765454
149	0xbd288f22	-0.041152127
150	0xbb194240	-0.0023385435
151	0x3b6309f0	0.0034643374
152	0xbd0c628e	-0.034273677
153	0xbe764c0c	-0.24052447
154	0x3cd481b4	0.025940754
155	0x3c0414e7	0.008061624
156	0xbddbec9a	-0.107384875
157	0x3d9aff7a	0.075682595
158	0x3ca5f40e	0.020257976
159	0x3ba797fc	0.0051145535
160	0x3cf38e2a	0.029730875
161	0xbe562de7	-0.20915948
162	0x3b3ddd54	0.0028971033
163	0x3d5dcc03	0.05414964
164	0xbe1d0ad5	-0.15336163
165	0x3dae9a25	0.085254945
166	0xbd0aebf4	-0.03391643
167	0xbc9a0607	-0.018801702
168	0xbda7d7b2	-0.081954375
169	0xbe3e8467	-0.18605195
170	0xbc9df0a1	-0.01927978
171	0x3d864b80	0.06557369
172	0xbda6fe92	-0.08154024
173	0xbd637850	-0.05553466
174	0x3d6bf883	0.057610046
175	0x3da0d13a	0.07852407
176	0xbd8ccfa9	-0.068755455
177	0xbdcf0a71	-0.101094134
178	0x3d3e479a	0.046455003
179	0xbda0cfeb	-0.07852157
180	0xbdc65988	-0.096850455
181	0x3cab3f13	0.0209041
182	0x3cbd3372	0.02309582
183	0xbd8c376d	-0.06846509
184	0xbc295deb	-0.010337333
185	0xbdf68196	-0.12036435
186	0xbbeef00d	-0.0072918
187	0x3ce69a45	0.028149733
188	0xbd18dc83	-0.03731967
189	0xbd7cfd05	-0.061764736
190	0xbbd76ea4	-0.0065744687
191	0x3c5306ab	0.012880008
192	0xbbff12e4	-0.0077842344
193	0x3dae45b1	0.08509386
194	0x3c91cacb	0.017796895
195	0x3d55f041	0.052231077
196	0x3e0fe3b5	0.14051707
197	0x3df286bc	0.11842105
198	0xbc9f7826	-0.01946647
199	0x3d46c367	0.048526194
200	0x3c62b522	0.013837131
201	0xbcada325	-0.021195957
202	0xbd0c5979	-0.034265015
203	0x3b051f14	0.0020312713
204	0x3d050d61	0.032483462
205	0x3e7333a1	0.23750164
206	0x3cc5d44f	0.024149088
207	0x3c3f8c7c	0.011691209
208	0x3cd7aed2	0.026328478
209	0x3daf8f70	0.085722804
210	0xbc7c5c91	-0.015402929
211	0xbcacb5bc	-0.021082751
212	0xbc8a2b9b	-0.016866496
213	0x3e63e22b	0.22254245
214	0x3d186a17	0.03721055
215	0xbd8f2d31	-0.069910415
216	0x3dc51433	0.09622993
217	0x3e0b3466	0.13594207
218	0x3a3d05e6	0.0007210657
219	0x3d374814	0.044746473
220	0xbbb0b814	-0.0053930376
221	0x3d115dea	0.035489954
222	0xbc766268	-0.01503811
223	0x3d64da72	0.05587239
224	0x3c7564c1	0.014977635
225	0x3dcec26b	0.10095676
226	0x3cbc07a7	0.022952868
227	0xbc0d5d6e	-0.008628232
228	0xbdd9b507	-0.10630231
229	0x3d180fa6	0.0371243
230	0xbd621e26	-0.055204533
231	0xbcd373eb	-0.02581211
232	0x3d8117a9	0.06303341
233	0x3d72c087	0.05926564
234	0xbc69583f	-0.014242231
235	0x3d8145cb	0.0631214
236	0xbe30f010	-0.17279077
237	0x3de3a096	0.11114614
238	0xbb2e43b2	-0.0026590643
239	0x3d635496	0.05550059
240	0xbd4f27b6	-0.05057498
241	0xbe20537f	-0.15656851
242	0x3d043a7d	0.03228234
243	0x3d30b958	0.043145508
244	0xbad593ea	-0.0016294692
245	0xbcca1111	-0.024666341
246	0x3c95acf1	0.018270941
247	0x3da5d5f9	0.08097453
248	0xbc9a1cfd	-0.01881265
249	0xbdb3d4df	-0.08780836
250	0xbcbf34a1	-0.023340525
251	0x3b7b21d2	0.003831972
252	0xbdd6ac08	-0.10482031
253	0xbd30082a	-0.042976536
254	0xbc815c1f	-0.015790997
255	0x3d8eda3b	0.06975218

fc1.bias f4 [400]
0	0xbcaf26a4	-0.02138073
1	0xbcb95a81	-0.022626163
2	0x3defc206	0.11706929
3	0xbc5e1725	-0.013555323
4	0x3d879fa0	0.06622243
5	0x3e00ec1c	0.12590069
6	0x3de09ec8	0.10967785
7	0x3d77cf2a	0.0605003
8	0x3e123204	0.14276892
9	0xbe46eb7b	-0.19425766
10	0xbe137cf0	-0.14403129
11	0x3e23ebe6	0.16007957
12	0x3de3227d	0.110905625
13	0xbe0db7e6	-0.13839683
14	0x3c096936	0.008386901
15	0x3d436010	0.047699034
16	0xbe0effc4	-0.13964754
17	0x3dc1054d	0.09424839
18	0xbc59c807	-0.013292319
19	0x3e6ac6d2	0.22927406
20	0x3aa03037	0.00122214
21	0x3cd5d0e5	0.026100585
22	0xbdd79b55	-0.10527674
23	0xbdd9da16	-0.106373
24	0x3de1c9c0	0.11024809
25	0x3e28a88b	0.16470544
26	0xbc0f398d	-0.0087417485
27	0xbdbc489d	-0.091935374
28	0xbe2d82e5	-0.16944464
29	0x3e3db138	0.18524635
30	0x3d00ca2d	0.03144281
31	0x3c712048	0.014717169
32	0x3e232611	0.1593249
33	0xbc85bb5f	-0.016324697
34	0xbe49b9a8	-0.19699728
35	0x3e465bd4	0.19370967
36	0x3e5077e2	0.20358232
37	0xbdd6679a	-0.10468979
38	0x3ab54bb2	0.0013831763
39	0x3e14ced7	0.14532028
40	0x3d31610b	0.043305438
41	0xbde3bb68	-0.11119729
42	0xbe09481b	-0.13406412
43	0xbdb48394	-0.08814159
44	0xbe230b9a	-0.15922394
45	0x3d293f74	0.04132028
46	0xbc87709e	-0.016533192
47	0xbd4d1bc4	-0.050075307
48	0x3c58f2db	0.013241495
49	0xbde993f6	-0.114051744
50	0xbe28a4cd	-0.16469117
51	0x3ce48c12	0.027898822
52	0xbbb95136	-0.005655433
53	0xbe074dc7	-0.13213263
54	0x3e0229ea	0.12711301
55	0xbd03d8c1	-0.032189135
56	0x3e047f56	0.129392
57	0x3d9ac771	0.07557572
58	0x3df5d6d1	0.120038636
59	0xbbd6c032	-0.006553673
60	0xbb873d2e	-0.0041271662
61	0xbdc40fa1	-0.095732935
62	0x3dd1c558	0.102427185
63	0x3d952ed5	0.07284323
64	0x3dfd0525	0.12354497
65	0x3dbb69fc	0.09151074
66	0x3e59fd91	0.21288134
67	0x3def3846	0.11680655
68	0x3e105565	0.14095075
69	0x3e73b467	0.23799287
70	0x3da0c121	0.078493364
71	0xbb95fa7d	-0.0045769797
72	0xbddcc47b	-0.10779663
73	0x3e06b1a5	0.13153704
74	0x3dbd0138	0.09228748
75	0x3d917824	0.07102993
76	0x3e15a235	0.14612658
77	0x3e5a0131	0.21289517
78	0x3cb8d98a	0.022564668
79	0x3c9c45dc	0.01907628
80	0xbe2366df	-0.15957211
81	0x3e0664ad	0.13124342
82	0xbdb99559	-0.09061689
83	0xbe2e99d6	-0.17050871
84	0x3b75d80f	0.0037512814
85	0x3e1cefbb	0.15325825
86	0xbe04dbcc	-0.12974471
87	0x3e53050e	0.20607397
88	0x3d3c49f1	0.045968954
89	0x3c85fc54	0.016355671
90	0xbe0db38e	-0.13838026
91	0xbda36de5	-0.07979945
92	0x3e387835	0.18014605
93	0xbc24fd8b	-0.010070215
94	0x3dfc60de	0.123231634
95	0xbe2da7c3	-0.16958527
96	0xbbfe5ed7	-0.0077627706
97	0x3dd3a00a	0.103332594
98	0x3dbebf1b	0.09313794
99	0xbdc453d2	-0.095863
100	0xbc9b9658	-0.018992588
101	0xbd8c90d6	-0.06863563
102	0x3de20159	0.11035413
103	0xbe34b191	-0.17645861
104	0xbcb566c9	-0.022143738
105	0xbe3dfc76	-0.18553337
106	0x3d4cee09	0.050031696
107	0xbe1da5a5	-0.1539522
108	0x3e63f8d2	0.22262886
109	0x3e47e613	0.1952136
110	0xbe728a43	-0.23685555
111	0xbce691bc	-0.028145663
112	0xbe15fc11	-0.14646937
113	0xbe261c96	-0.16221842
114	0xbe5fbbad	-0.21848936
115	0xbd92cbd3	-0.07167783
116	0xbd717175	-0.05894609
117	0xbd03168a	-0.032003917
118	0x3e5a2481	0.21302988
119	0x3dd020c7	0.10162502
120	0x3e3fa2c1	0.1871443
121	0x3d4e4cd7	0.05036625
122	0x3cc90022	0.024536196
123	0x3d5fdf04	0.054656044
124	0xbcd63f8a	-0.026153345
125	0x3e148d6d	0.14507075
126	0x3dbdcebc	0.09267947
127	0xbde2473f	-0.11048745
128	0xbe1c131c	-0.15241665
129	0xbdafde1f	-0.08587288
130	0x3e2ed86e	0.17074749
131	0xbdd3b245	-0.103367366
132	0xbe801bdc	-0.25021255
133	0x3daf9ce9	0.0857485
134	0xbdd14b94	-0.102194935
135	0x3d17ce41	0.037061933
136	0xbc764f13	-0.015033501
137	0x3e180248	0.1484462
138	0xbc93ed9a	-0.018057633
139	0xbdbba1dc	-0.091617316
140	0x3e21bb72	0.15794161
141	0xbe0dcd75	-0.13847907
142	0x3e8ae4fa	0.2712782
143	0xbda22e01	-0.07918931
144	0xbdb46fb6	-0.0881037
145	0x3e04d8c3	0.12973313
146	0x3c4c1e6b	0.012458424
147	0xbe44b367	-0.19209062
148	0x3ce95dae	0.028487053
149	0x3cd4c648	0.025973454
150	0x3ce12352	0.027482662
151	0x3da3563a	0.07975431
152	0xbe37b002	-0.17938235
153	0x3e445a5c	0.19175094
154	0x3d78f51b	0.060780626
155	0x3ced5fd6	0.028976362
156	0x3d337f62	0.043822654
157	0xbe3ed61e	-0.18636367
158	0x3e67174b	0.2256748
159	0x3dbc639b	0.09198686
160	0x3e955494	0.2916609
161	0x3dd82b8c	0.10555181
162	0x3d4c1e0e	0.04983335
163	0x3e6e64df	0.23280667
164	0xbd1fd9a7	-0.03902593
165	0xbe443373	-0.19160251
166	0xbd9e11ae	-0.07718216
167	0xbe1ffba1	-0.15623333
168	0xbd2a5621	-0.041586045
169	0xbddc45a7	-0.10755473
170	0x3d8d4651	0.068981774
171	0xbe1895b9	-0.14900865
172	0xbdf910fc	-0.12161443
173	0xbdbf8337	-0.09351199
174	0xbd11cf5f	-0.035598155
175	0xbe31c2fe	-0.1735954
176	0xbe13cf3b	-0.14434521
177	0xbe04e0ea	-0.12976423
178	0x3d9cc726	0.07655172
179	0xbca223d9	-0.019792484
180	0xbdbbfb42	-0.09178783
181	0xbde15e3b	-0.11004301
182	0xbcc48182	-0.023987535
183	0xbe11da9c	-0.14243549
184	0xbe3e955d	-0.18611665
185	0x3e64865a	0.22316876
186	0x3db516fd	0.08842275
187	0x3e2aaedf	0.1666827
188	0x3d5732c6	0.052538656
189	0x3dae8715	0.085218586
190	0x39b86d29	0.00035176545
191	0x3e03c725	0.12868936
192	0xbd9f0ceb	-0.07766136
193	0x3dd12e12	0.10213865
194	0x3d18b7bc	0.037284598
195	0xbdb7e159	-0.089785285
196	0x3e37be59	0.17943706
197	0x3e42a812	0.19009426
198	0xbe42b49f	-0.19014214
199	0x3dd95401	0.106117256
200	0xbd1ba005	-0.037994403
201	0x3dd3a031	0.103332885
202	0x3e517120	0.2045331
203	0x3e29138b	0.16511361
204	0xbe41f4ab	-0.1894099
205	0xbe218bb7	-0.15775953
206	0xbe3dc353	-0.18531542
207	0x3e1b2697	0.1515144
208	0xbe2c2144	-0.16809565
209	0xbd823173	-0.06357088
210	0xbe23edc6	-0.16008672
211	0xbd007c94	-0.031368807
212	0xbdf2a8c9	-0.118485995
213	0x3e3d1b82	0.18467525
214	0x3e39a7b6	0.18130383
215	0x3bb81134	0.005617285
216	0x3d97a922	0.074053064
217	0x3e315862	0.17318872
218	0x3dd82ec2	0.10555793
219	0x3dcd4ca9	0.100243874
220	0xbdb090ae	-0.086213455
221	0x3d24740e	0.04014974
222	0xbd895478	-0.06705564
223	0x3d7cdc57	0.06173357
224	0x3ca82062	0.020523254
225	0x3d463132	0.04838676
226	0xbe2d9a9e	-0.16953513
227	0xbd1063df	-0.035251494
228	0xbd0b99e1	-0.034082297
229	0x3bf02d1d	0.0073295967
230	0xbdd3c1a6	-0.1033967
231	0xbdc171e8	-0.09445554
232	0xbe32a548	-0.17445862
233	0x3d94199b	0.07231446
234	0x3e3524be	0.17689797
235	0x3c9c038c	0.01904466
236	0x3d113c3e	0.035457842
237	0x3db53169	0.08847315
238	0xbe2ed4e9	-0.17073406
239	0xbe906065	-0.28198543
240	0x3d22dcac	0.03976123
241	0xbddb3328	-0.10703117
242	0x3e1888c6	0.14895925
243	0xbd0b5997	-0.034020986
244	0xbd338175	-0.04382463
245	0xbdfdccb9	-0.123925634
246	0xbeb509dd	-0.35359088
247	0xbde5ad9b	-0.11214753
248	0x3e4f4ffa	0.20245352
249	0x3e823166	0.25428313
250	0xbb9d54cc	-0.0048013683
251	0x3dede3e4	0.11615732
252	0x3e5affc5	0.21386631
253	0xbcd43ccc	-0.025907896
254	0xbdbdef84	-0.092741996
255	0xbe17d8ca	-0.14828792

fc2.weight f4 [300, 400]
0	0xbd74c817	-0.059761133
1	0x3da2abda	0.07942934
2	0x3cc9acdb	0.024618557
3	0x3cbc6768	0.022998527
4	0x3cd1f1a9	0.025627928
5	0xbce9b37f	-0.028527973
6	0xbd8fd193	-0.07022395
7	0xbda83b5e	-0.082144484
8	0x3d381b2c	0.044947788
9	0xbcb3f84c	-0.021968983
10	0xbdbc5bfa	-0.09197231
11	0xbc0b326b	-0.008495907
12	0x3dc1a92c	0.09456095
13	0x3c6b03a2	0.014344128
14	0xbd75d080	-0.060013294
15	0x3ce9dd86	0.028548013
16	0xbe4dc0db	-0.200931
17	0xbd831fc0	-0.0640254
18	0xbd23b169	-0.039964113
19	0xbd850b65	-0.06496314
20	0x3d3b9a06	0.045801185
21	0xbda1c85e	-0.07899545
22	0xbda96c01	-0.08272553
23	0xbdb90933	-0.09034958
24	0xbcb73d06	-0.022367965
25	0x3c9ff9a7	0.019528223
26	0xbc89b633	-0.016810512
27	0xbd70a9a6	-0.05875554
28	0xba27d3f3	-0.00064021273
29	0xbc77031d	-0.015076426
30	0xbcf385e4	-0.02972693
31	0x3ce24d2e	0.027624693
32	0x3d60a57e	0.054845326
33	0xbdba977a	-0.09110923
34	0x3c5a1618	0.013310932
35	0xbc8746bb	-0.01651322
36	0x3ba572c0	0.0050490797
37	0xbda1f13b	-0.07907339
38	0x3e0d3fa6	0.13793811
39	0xbc978a04	-0.018498428
40	0x3d3b1169	0.0456709
41	0x3d24d74d	0.04024439
42	0x3d85ff1f	0.06542801
43	0xbb598bf6	-0.0033194995
44	0x3d4e8854	0.05042298
45	0x3cf047cd	0.029331112
46	0x3d28bb5d	0.04119431
47	0x3d365cbb	0.04452203
48	0xbcaf5755	-0.021403948
49	0x3ccdee03	0.025137907
50	0x3d05162d	0.03249185
51	0xbc79a5b8	-0.015237264
52	0xbe48333d	-0.19550796
53	0xbdb7b109	-0.08969314
54	0xbbaeb685	-0.0053318166
55	0x3d723be6	0.059139155
56	0x3d5cd3e1	0.053913
57	0xbd8f0e06	-0.06985097
58	0x3d22d98d	0.039758254
59	0xbd0fd0f0	-0.035111368
60	0xbd506a2b	-0.0508825
61	0xbd8a7bfe	-0.06761931
62	0xbd789a3b	-0.06069396
63	0x3dee9a07	0.11650472
64	0x3c53199a	0.012884522
65	0xbd9bcd39	-0.076075025
66	0xbd2a2d54	-0.041547135
67	0xbcf659bd	-0.030072087
68	0x3d695812	0.056968756
69	0x3d0af9d1	0.03392965
70	0x3d00f5ef	0.03148454
71	0x3a8b706c	0.0010638363
72	0x39cd0768	0.00039106165
73	0xba98a3ff	-0.0011645554
74	0x3d98e6d9	0.07465906
75	0x3d025607	0.031820323
76	0x3c3125f0	0.010812268
77	0xbb06cf4c	-0.0020570336
78	0x3d9ffe59	0.07812185
79	0xbc8ce7d1	-0.017200382
80	0xbba89edc	-0.0051458906
81	0x3d9ce64b	0.076611124
82	0xbd128e59	-0.035780285
83	0x3d038211	0.032106463
84	0x3c1515ce	0.009099437
85	0x3e0b2dc6	0.1359168
86	0xbcbdeb00	-0.023183346
87	0xbdaf6f59	-0.0856616
88	0xbd34c9b8	-0.044137686
89	0x3c37fe2d	0.011230034
90	0xbcfd94cf	-0.030954747
91	0x3d6789d1	0.056527916
92	0x3d24d136	0.04023858
93	0xbdc62e90	-0.0967685
94	0xbcda109a	-0.026619244
95	0xbd9cd3e2	-0.07657601
96	0x3d9bd554	0.076090485
97	0x3cdaddca	0.026717085
98	0xbb3e7846	-0.0029063388
99	0x3cd54c1e	0.026037272
100	0xbd4aa16c	-0.04947035
101	0x3c8a85c5	0.01690949
102	0xbd24ae6f	-0.040205415
103	0xbe3243d6	-0.1740869
104	0xbd29e965	-0.041482348
105	0x3c5a0a56	0.013308128
106	0x3cbeb402	0.023279194
107	0x3da0a3ac	0.07843718
108	0x3a8e4d67	0.0010856808
109	0x3d3a2c82	0.045452602
110	0xbd601f7f	-0.054717537
111	0x3dbacdfc	0.0912132
112	0x3b3546bb	0.0027660567
113	0xbdc3485e	-0.09535287
114	0x3d8b5408	0.06803137
115	0x3ca732bb	0.020409932
116	0xbd21b977	-0.039483514
117	0xbdf61f28	-0.12017661
118	0xbda2ff2e	-0.07958828
119	0x3ca15502	0.019693855
120	0x39d3f014	0.00040423928
121	0x3d1c91a6	0.03822484
122	0xbc9afcab	-0.01891931
123	0x3c5857ee	0.013204558
124	0x3ca46722	0.020068709
125	0x3c3c6bbb	0.011500294
126	0xbdef2c30	-0.1167835
127	0x3d1a1f8f	0.037627753
128	0x3dd8bca4	0.10582855
129	0xbe408eec	-0.1880452
130	0xbdd70234	-0.10498467
131	0xbe78961a	-0.24276009
132	0x3c4a776b	0.012357573
133	0xbb24d401	-0.0025150778
134	0xbe15ee33	-0.14641647
135	0xbded9461	-0.11600567
136	0x3da2a0e0	0.07940841
137	0x3ccde5dc	0.02513402
138	0x3a99c73b	0.0011732349
139	0xbc9e2721	-0.019305767
140	0xbd0eea61	-0.03489149
141	0xbd2859f9	-0.04110143
142	0xbc2cca9b	-0.010546352
143	0x3c99f5e1	0.018794002
144	0xbddb413f	-0.10705804
145	0x3c2673a1	0.010159404
146	0x3d8deb27	0.069296174
147	0x3c55da07	0.01305247
148	0xbdee81b4	-0.11645833
149	0xbc75bdde	-0.014998881
150	0x3c5c70a9	0.013454595
151	0xbcb51216	-0.02210335
152	0x397f8a2f	0.00024370172
153	0x3ce1ef5a	0.027579952
154	0xbc61f781	-0.01379192
155	0xbdbfc61c	-0.09363958
156	0xbb97f4dc	-0.004637344
157	0x3cd8c715	0.026462117
158	0xbd868dd1	-0.06570018
159	0xbd750ad8	-0.059824795
160	0xbcd6a526	-0.026201796
161	0xbd7cff2f	-0.0617668
162	0xbd591447	-0.052997854
163	0x3da2744c	0.07932338
164	0xbe128e67	-0.14312135
165	0x3daf869d	0.08570597
166	0x3d83f930	0.06444013
167	0xbd4a021d	-0.04931842
168	0xbdc71f9d	-0.09722827
169	0xbdd23ce0	-0.10265517
170	0xbd4d321e	-0.050096624
171	0xbd916872	-0.070999995
172	0x3dd39b37	0.10332339
173	0x3dc88752	0.09791435
174	0xbdcf2d75	-0.10116092
175	0xbcbabd4a	-0.022795338
176	0x3b9f8321	0.0048679267
177	0xbd2c98eb	-0.04213802
178	0xbd36110d	-0.044449855
179	0x3dc9b16a	0.09848292
180	0xbd2a54df	-0.041584846
181	0x3d7ce508	0.06174186
182	0x3cb0722a	0.021538813
183	0xbdb4a37f	-0.08820247
184	0xbd0d0911	-0.034432475
185	0x3d7c54ee	0.061604433
186	0xbc0cd22f	-0.008595034
187	0x3d06fa43	0.032953512
188	0xbdb323cb	-0.08747061
189	0xbd6f6eb0	-0.05845517
190	0x3d25151f	0.040303346
191	0x3d6db1cc	0.05803089
192	0x3da2ee54	0.07955614
193	0xbc831b76	-0.016004305
194	0xbc8e271b	-0.017352631
195	0xbca0dfdb	-0.019637993
196	0x3c8d9c43	0.017286425
197	0x3d58e9e8	0.052957445
198	0xbd191ceb	-0.037381094
199	0xbc892d72	-0.016745303
200	0xbd30dcab	-0.043179195
201	0x3d70cf94	0.058791712
202	0x3d0b07ff	0.033943173
203	0xbda19104	-0.07888988
204	0x3be8c41d	0.0071034566
205	0xbc0c87a1	-0.008577258
206	0x3e1de80c	0.1542055
207	0x3e0fd76c	0.1404702
208	0x3d4f4949	0.050607
209	0xbdb6b0cd	-0.08920441
210	0x3dead7ac	0.114669174
211	0xbd866dc7	-0.06563907
212	0x3d6a9e26	0.05727973
213	0x3cc0c9ef	0.02353379
214	0x3c87fb3f	0.016599296
215	0xbbfbee1a	-0.007688296
216	0x3d11b9fb	0.035577755
217	0x3d05058d	0.032475997
218	0x3d245ed4	0.040129498
219	0xbc5a5eb1	-0.01332824
220	0x3d3d4fa7	0.04621854
221	0xbda78fe6	-0.08181743
222	0x3c8d0a56	0.017216843
223	0xbd80dc3f	-0.062920086
224	0xbd2b74e7	-0.041859534
225	0xbd041ac2	-0.03225208
226	0xbddf0037	-0.10888713
227	0xbd44e204	-0.048067108
228	0xbddd46f4	-0.10804549
229	0x3c2bfdd6	0.010497531
230	0x3dab6b80	0.083701134
231	0x3c8d31b3	0.017235612
232	0xbc80b339	-0.01571046
233	0xbd70a92e	-0.058755092
234	0x3cbc6218	0.022995993
235	0x3c933703	0.017970568
236	0xbd2c61c6	-0.04208543
237	0x3db7719c	0.08957216
238	0x3d42029c	0.04736577
239	0x3cde8692	0.027163778
240	0xbcd8806f	-0.02642843
241	0x3bcb158b	0.0061976365
242	0x3d89d927	0.06730872
243	0xbd6a6a9e	-0.057230584
244	0x3d81787c	0.06321809
245	0xbc9c67b2	-0.019092415
246	0x3bbec408	0.0058217086
247	0xbd4f6b57	-0.050639477
248	0x3b97c684	0.004631819
249	0x3cc7a9f0	0.024373025
250	0xbd413ead	-0.047178913
251	0xbdb9a51c	-0.09064695
252	0x3d52248d	0.05130439
253	0x3c9ead08	0.019369617
254	0xbde564c1	-0.11200858
255	0x3c872af8	0.016499981

fc2.bias f4 [300]
0	0x3d289d53	0.04116566
1	0xbd5960d2	-0.05307085
2	0x3d188298	0.03723392
3	0xbde94326	-0.11389761
4	0xbcc80ce3	-0.024420207
5	0xbd0f81d2	-0.035035916
6	0x3db00a0f	0.085956685
7	0x3bbf6560	0.0058409423
8	0xbaa56e77	-0.0012621422
9	0xbc6996db	-0.014257158
10	0x3d069ccb	0.032864373
11	0xbc8b3aad	-0.016995752
12	0xbdd037ce	-0.10166894
13	0xbd0f616a	-0.03500501
14	0x3c26650c	0.010155927
15	0x3d302d57	0.04301199
16	0xbd2747b4	-0.040839866
17	0xbce14cbf	-0.027502416
18	0xbc204974	-0.009783138
19	0xbcd35fa2	-0.025802437
20	0x3d343816	0.0439988
21	0x3d00770d	0.031363536
22	0x3b0a4189	0.002109619
23	0x3c0aba68	0.008467294
24	0x3c117695	0.00887837
25	0xbcab9934	-0.020947076
26	0x3cffa2ec	0.031205617
27	0x3c034cb6	0.008013895
28	0xbd4e3b19	-0.05034933
29	0x3d5395f8	0.051656693
30	0x3d57b067	0.052658465
31	0xbd93d62e	-0.07218586
32	0xb934b0f7	-0.00017232062
33	0x3c941612	0.01807693
34	0x3d156c30	0.03648013
35	0xbd83c2ff	-0.06433677
36	0x3cd197cd	0.02558508
37	0xbd1be2d2	-0.03805811
38	0xbd432483	-0.047642242
39	0xbc912410	-0.017717391
40	0x3d363ee1	0.04449356
41	0xbd45a8fe	-0.048256867
42	0x3c73db31	0.014883802
43	0x3d0539d8	0.032525867
44	0x3da0e305	0.078558005
45	0xbce6a86e	-0.028156485
46	0x3d19741e	0.037464254
47	0xbc626a02	-0.01381922
48	0xbc2f4fd0	-0.010700181
49	0x3db83198	0.08993834
50	0xbd12295b	-0.03568397
51	0x3d1f4916	0.03888806
52	0xbdac7e27	-0.08422499
53	0x3b8ff75d	0.0043935017
54	0xbc08d5c2	-0.008351745
55	0xbd50fe61	-0.051023845
56	0x3d9d0e62	0.07668759
57	0xbd5a3f5a	-0.053283073
58	0xbc72222d	-0.014778656
59	0x3d91b03c	0.07113692
60	0xbca8958c	-0.020579122
61	0x3d02319b	0.03178559
62	0x3c0179ec	0.007902604
63	0xbd403388	-0.046924144
64	0x3d18d7cb	0.03731517
65	0xbd30cbd1	-0.043163124
66	0x3b37bfce	0.0028037908
67	0xbd18e361	-0.03732622
68	0x3cbbb50a	0.022913475
69	0xbc13243a	-0.008980805
70	0x3c68674b	0.014184783
71	0x3cb10e3f	0.021613238
72	0xbc4ce4d9	-0.012505733
73	0x3cf817c2	0.030284766
74	0xbd08af8a	-0.033370532
75	0xbd47314b	-0.048630994
76	0x3c770183	0.015076044
77	0x3c51261d	0.012765435
78	0x3d507661	0.050894145
79	0xbad2991f	-0.0016067362
80	0xb84c1226	-4.8654292e-05
81	0x3d2224b6	0.03958579
82	0x3d45a3a1	0.04825175
83	0xbd6ff54d	-0.058583546
84	0xbd3fa2aa	-0.046785988
85	0xbd174061	-0.03692663
86	0x3d09f1c1	0.03367782
87	0xbcd72b73	-0.026265835
88	0xbd5f105c	-0.05445896
89	0xbce913e5	-0.02845187
90	0xbcc84dcc	-0.024451159
91	0x3d4b2641	0.04959703
92	0xbd28715b	-0.04112373
93	0x3d5d7295	0.054064352
94	0xbc7ecf45	-0.015552347
95	0xbcb7371b	-0.022365144
96	0x3d419903	0.047265064
97	0x3ad80775	0.0016481715
98	0x3d97d97c	0.07414529
99	0xbc01c901	-0.007921458
100	0xbd36326b	-0.044481676
101	0xbc9a27e4	-0.01881785
102	0x3c8d6dec	0.017264329
103	0xbcd3a73d	-0.025836581
104	0xbcc4dcbe	-0.02403104
105	0x3c69ece5	0.014277671
106	0x3d4ac094	0.049500063
107	0x3df383d1	0.11890376
108	0x3d3461c5	0.044038553
109	0x3cba59eb	0.022747954
110	0xbe08828c	-0.1333105
111	0x3d189fd4	0.0372618
112	0xbd4bd8cf	-0.04976731
113	0xbc34d50a	-0.011037121
114	0xbccaf901	-0.024776937
115	0x3d62aca6	0.05534043
116	0xbd479377	-0.048724618
117	0x3d67fa8d	0.05663543
118	0xbc86d8ca	-0.016460795
119	0x3db462be	0.08807896
120	0x3d8124e9	0.06305868
121	0xbd50054b	-0.050786298
122	0x3d26282f	0.040565666
123	0x3c2cdc9d	0.010550645
124	0x3c8e6512	0.017382178
125	0x3d004a87	0.031321075
126	0x3b464fe9	0.0030260033
127	0xbc1778c5	-0.009245102
128	0x3d533a27	0.05156913
129	0x3d68d169	0.056840334
130	0xbcf0a948	-0.029377595
131	0xbd102f7f	-0.035201546
132	0x3c1f91fc	0.009739395
133	0xbc01d7dd	-0.007925001
134	0x3cdf6b37	0.027272804
135	0x3d8e67d7	0.069534
136	0xbd431fde	-0.047637813
137	0x3d1b238f	0.03787571
138	0xbcb3ede5	-0.021964023
139	0x3d226dc2	0.039655454
140	0x3d417f03	0.04724027
141	0x3cbf288d	0.023334766
142	0xbc8e8bad	-0.017400587
143	0x3d859872	0.06523217
144	0xbe0004a4	-0.1250177
145	0x3d19c037	0.037536826
146	0xbc134eae	-0.008990927
147	0xbd7c12df	-0.061541434
148	0x3d4caeb0	0.049971282
149	0xbd632b67	-0.055461314
150	0xbcf31f8d	-0.02967813
151	0x3ddc1797	0.10746687
152	0x3c2205be	0.009889064
153	0xbd9c2ec9	-0.07626111
154	0x3d71f577	0.059071984
155	0x3ca408f0	0.020023793
156	0xbcd1bb6b	-0.025602063
157	0x3d229c4f	0.03969985
158	0xbbc05451	-0.0058694263
159	0x3c5911e2	0.0132488925
160	0x3c4a4a54	0.012346823
161	0x3d8faaf6	0.0701503
162	0xbca9b855	-0.02071778
163	0xbd113876	-0.035454236
164	0xbcc11380	-0.023568869
165	0xbc8f723a	-0.017510522
166	0x3cd2e3c7	0.025743378
167	0x3dc7a62b	0.09748491
168	0xbd45c1c5	-0.048280496
169	0x3d14fe16	0.036375128
170	0x3c995544	0.018717416
171	0xbc87429c	-0.016511254
172	0x3d183806	0.037162803
173	0xbd5b8877	-0.05359694
174	0x3d6515ed	0.055929113
175	0xbd436125	-0.047700066
176	0xbc9a3c0a	-0.018827457
177	0x3c36de09	0.011161336
178	0xbcab4743	-0.020908004
179	0xbd1e3b1d	-0.038630594
180	0x3c549e4c	0.012977194
181	0x3a66d43c	0.0008805429
182	0xbd34f734	-0.044181064
183	0xbd0bc5c1	-0.03412414
184	0x3d407ee1	0.046996
185	0x3d55e484	0.052219883
186	0x3d29e098	0.041473955
187	0x3d88e031	0.06683386
188	0x3da2ebb0	0.0795511
189	0x3c1dcee7	0.009631849
190	0x3d090f65	0.033461947
191	0x3cb9dbdb	0.022687843
192	0xbd210bdc	-0.03931795
193	0xbd6aaeaa	-0.05729548
194	0xbd1c1556	-0.038106285
195	0xbdc9b6c3	-0.09849312
196	0x3d28a9c9	0.041177545
197	0x3cca4eac	0.024695717
198	0xbc9d187a	-0.01917671
199	0x3c237389	0.009976276
200	0x3dabd954	0.083910614
201	0x3d13cb64	0.03608264
202	0xbd18ef6f	-0.037337717
203	0xbc68b07a	-0.014202232
204	0x3d189556	0.037251793
205	0x3d8c8a01	0.0686226
206	0x3d87760d	0.06614313
207	0xbaed5450	-0.0018106792
208	0x3db2f766	0.08738594
209	0x3c4eba10	0.012617603
210	0x3c85fc77	0.016355736
211	0xbd3c3653	-0.045950245
212	0xbd02e0eb	-0.03195278
213	0xbc4ca124	-0.012489591
214	0x3d937b1d	0.07201216
215	0xbd129684	-0.035788074
216	0x3e1d5d89	0.15367712
217	0xbd138cf3	-0.03602309
218	0x3a024b0a	0.0004970288
219	0x3d33d980	0.043908596
220	0xbd0e8022	-0.034790166
221	0x3d588722	0.052863248
222	0x3c1e9c52	0.009680824
223	0x3d8f96d0	0.07011187
224	0x3d47c3f3	0.048770856
225	0x3cfadfdf	0.030624328
226	0xba7aa506	-0.00095613336
227	0x3c525d5c	0.012839641
228	0xbda1ac28	-0.07894164
229	0xbcaa2e24	-0.020773955
230	0x3d612d83	0.054975044
231	0x3df70b88	0.12062746
232	0xbd092093	-0.03347833
233	0xbd9ed896	-0.07756154
234	0x3c46bd51	0.0121300975
235	0xbd28ac2a	-0.041179813
236	0x3d7e8d3b	0.062146407
237	0x3cd4d329	0.025979595
238	0xbdd966c2	-0.106153026
239	0xbca0244c	-0.019548558
240	0xbca74dbf	-0.020422814
241	0x3c02e21c	0.007988479
242	0xbd892bdf	-0.06697821
243	0x3bd5ced1	0.0065248986
244	0x3c96c1fd	0.018403048
245	0xbc96d8da	-0.01841395
246	0x3d02124c	0.03175573
247	0xbccb059b	-0.024782946
248	0x3d93f6be	0.07224797
249	0xbcd95f8c	-0.026534818
250	0x3cf68610	0.030093223
251	0x3b498630	0.0030750148
252	0x3d10fa18	0.035394758
253	0xbd8c4860	-0.06849742
254	0xbd6d709b	-0.057968717
255	0x3d56cba1	0.05244029

fc3.weight f4 [2, 300]
0	0x3e23b400	0.15986633
1	0xbe160594	-0.14650565
2	0x3d9bd156	0.07608287
3	0xbdc70a76	-0.09718792
4	0x3def9671	0.11698616
5	0x3baad6a7	0.005213577
6	0xbc267501	-0.010159732
7	0x3d35c209	0.0443745
8	0x3dd56b31	0.10420836
9	0x3d0acaae	0.033884697
10	0x3dbb0f83	0.09133818
11	0xbca19caf	-0.019728033
12	0xbdfdb94f	-0.123888604
13	0xbc920df1	-0.017828913
14	0x3defddff	0.11712264
15	0x3ee3ff05	0.44530502
16	0xbc5cf43c	-0.013485964
17	0x3d53a710	0.051672995
18	0x3d0e4202	0.03473092
19	0xbd7df68d	-0.062002707
20	0x3d89dcf3	0.06731596
21	0x3e5aa271	0.21351029
22	0xbdb5d224	-0.08877972
23	0x3cb978d7	0.022640629
24	0x3d7557b4	0.059898093
25	0xbcd1d402	-0.025613789
26	0xbce2d4a3	-0.027689284
27	0x3cf33c9f	0.029691992
28	0x3e66a5f0	0.22524238
29	0x3dd6e420	0.1049273
30	0xbd052665	-0.03250732
31	0x3e80f612	0.25187737
32	0xbb60eea1	-0.0034321921
33	0xbd2d1e86	-0.042265438
34	0x3d33aecd	0.043867875
35	0xbd8eaf19	-0.06966991
36	0x3d0ecf10	0.03486544
37	0xbd99bd07	-0.07506757
38	0x3d32e888	0.04367879
39	0xbae20518	-0.001724395
40	0x3cab533d	0.020913715
41	0xbe2a5fa5	-0.16638048
42	0x3e66f93e	0.22556016
43	0x3c476126	0.012169158
44	0x3e9b8892	0.30377632
45	0x3e9fd336	0.3121583
46	0x3ddbc0d9	0.10730142
47	0x3c88e5a9	0.016711073
48	0x3e701dea	0.23448911
49	0xbc84d19c	-0.01621323
50	0x3b70c704	0.0036739716
51	0x3deef022	0.116668954
52	0xbd4c1ecc	-0.049834058
53	0x3e13bd48	0.14427674
54	0xbcd40a33	-0.02588377
55	0xbd14f4bf	-0.03636622
56	0x3dd6aebe	0.10482548
57	0xbcf1c912	-0.029514823
58	0x3c761243	0.015019002
59	0xbb0e85da	-0.0021747262
60	0x3e0c1b75	0.13682349
61	0x3d4b1bee	0.049587183
62	0xbb64badd	-0.0034901418
63	0x3e7e94e6	0.24861488
64	0x3c9003f6	0.017580014
65	0xbb415bc8	-0.0029504169
66	0xbe150f7d	-0.1455669
67	0xbba43012	-0.0050106132
68	0xbda059cd	-0.07829628
69	0x3c05ea35	0.008173515
70	0x3eaf903e	0.34289736
71	0xbd1920e4	-0.037384883
72	0x3d9dae53	0.07699265
73	0xbb96dcdb	-0.0046039647
74	0x3ca3f5e9	0.02001472
75	0xbd83fb1c	-0.0644438
76	0xbdb78f49	-0.08962876
77	0x3d0f58c7	0.034996774
78	0x3d9a4471	0.075325854
79	0x3deae471	0.11469353
80	0xbd921ced	-0.071344234
81	0x3d15a2ad	0.036532093
82	0x3d0eac71	0.03483242
83	0x3d417ca6	0.047238015
84	0x3dc67ccf	0.09691774
85	0xb92095dd	-0.00015314617
86	0x3e09415c	0.13403839
87	0xbbb085a0	-0.005387023
88	0x3eab2a5d	0.33430758
89	0xbdbf48cd	-0.093400575
90	0x3e7445dd	0.23854776
91	0x3e512172	0.20422915
92	0xbb7bb4ac	-0.003840725
93	0x3c9bcc93	0.019018447
94	0x3d37af47	0.044844892
95	0xbbdd3467	-0.0067506316
96	0x3cd92264	0.026505657
97	0x3d841f0b	0.064512335
98	0xbd0c7283	-0.034288894
99	0xbe7024bd	-0.23451515
100	0x3c8f202d	0.017471397
101	0xbd84d672	-0.06486215
102	0xbd2e0983	-0.04248954
103	0xbd536344	-0.05160834
104	0xbd6bdb4a	-0.057582177
105	0x3d7bc2ce	0.061465077
106	0x3d4640db	0.048401695
107	0xbce9dc47	-0.02854742
108	0x3d817743	0.063215755
109	0x3d2f5bc5	0.042812128
110	0x3d011fc9	0.031524453
111	0xbb89b801	-0.004202843
112	0xbdf9f842	-0.122055545
113	0x3d0b83ed	0.03406136
114	0xbc7f90ec	-0.015598517
115	0x3dd38a03	0.10329058
116	0xbe5d55f1	-0.21614815
117	0x3d992829	0.07478363
118	0x3e75b541	0.23994924
119	0xb9828318	-0.00024893205
120	0x3bce9a55	0.006305019
121	0xbc54363b	-0.012952383
122	0x3d3ffb42	0.046870477
123	0x3e3fe558	0.18739831
124	0x39674278	0.00022054638
125	0x3b864b8f	0.0040983628
126	0xbd20ca3c	-0.039255366
127	0x3c5ad81e	0.01335719
128	0xbdc6d7fa	-0.09709163
129	0x3e2950a7	0.16534673
130	0x3ad9b393	0.0016609303
131	0x3e0b698a	0.13614479
132	0x3bf182a7	0.0073703113
133	0xbd3c6b0b	-0.04600052
134	0xbbd1726b	-0.0063918135
135	0x3d9fda4d	0.078053094
136	0x3adaee8e	0.0016703175
137	0x3c5c8693	0.013459819
138	0x3e0b8d88	0.13628209
139	0x3e395210	0.1809771
140	0x3c97fd7b	0.018553486
141	0xbdf2e499	-0.11860008
142	0x3c77acd4	0.015116889
143	0x3d6ec16b	0.058289926
144	0xbdb5622e	-0.08856617
145	0x3d946e40	0.07247591
146	0xbd47126a	-0.048601545
147	0xbc1dcda8	-0.009631552
148	0x3e0946ee	0.13405964
149	0x3d8d459c	0.068980426
150	0xbd685408	-0.056720763
151	0xbc2bc0c3	-0.01048297
152	0xbd7e08b9	-0.062020037
153	0xbe8e4872	-0.27789646
154	0x3e846e6a	0.2586549
155	0xbda05567	-0.07828789
156	0xbcb56879	-0.022144543
157	0xbb55de19	-0.0032633601
158	0x3ba20e7a	0.0049455734
159	0x3e24f77e	0.16110036
160	0x3d258c27	0.040416863
161	0x3e47d5d6	0.19515166
162	0x3b864ce5	0.004098522
163	0x3e8e99b3	0.27851638
164	0xbc4646b7	-0.012101821
165	0x3e5f5fb3	0.2181385
166	0xbb3f19ce	-0.0029159668
167	0x3d52ec01	0.051494602
168	0xbd5748c1	-0.052559618
169	0x3dadfe66	0.08495788
170	0x3b991062	0.0046711424
171	0x3d16cd3d	0.036816824
172	0xbdac3182	-0.0840788
173	0xbd7373b6	-0.059436522
174	0x3cbd8f87	0.023139728
175	0xbd81920d	-0.06326685
176	0x3dea0f9d	0.11428759
177	0x3da296e3	0.079389356
178	0xbc162398	-0.00916376
179	0x3d62be16	0.05535706
180	0x3d0d3fc6	0.034484647
181	0xbdb4b36e	-0.08823286
182	0xbb558e67	-0.00325861
183	0xbda4cbd3	-0.08046689
184	0x3e33bb2f	0.17551874
185	0x3dd3954c	0.103312105
186	0x38a349c4	7.7861856e-05
187	0x3dacb556	0.084330246
188	0x3d82c877	0.06385892
189	0xbe0eeec7	-0.13958274
190	0x3e19e1bd	0.15027519
191	0x3d397024	0.04527296
192	0x3dbd301f	0.09237694
193	0xbe57d949	-0.21078981
194	0xbd01ea02	-0.031717308
195	0xbe2086d2	-0.1567643
196	0x3dfffc14	0.12499252
197	0x3d3256b0	0.043539703
198	0x3a68d6f4	0.0008882128
199	0x3db9c9ff	0.09071731
200	0x3ccfa6c1	0.02534807
201	0x3e2a8f24	0.16656166
202	0x3bb6ddbc	0.005580632
203	0xbce0ffc4	-0.027465709
204	0x3c4dda2f	0.012564226
205	0x3be74fd7	0.007059078
206	0xbb204da7	-0.0024460347
207	0xbca3eee5	-0.020011375
208	0x3e4992e7	0.19684945
209	0x3d84031c	0.064459056
210	0x3da686ac	0.08131155
211	0xbeb5e977	-0.35529682
212	0x3d846991	0.06465448
213	0xbdc8406e	-0.09777914
214	0x3da423f2	0.080146685
215	0x3dfdc0a3	0.12390258
216	0xbbc885a2	-0.006119446
217	0x3d0b7cbe	0.03405451
218	0x3d1f945d	0.03895985
219	0xbcfd3340	-0.030908227
220	0x3e0b11e7	0.13581048
221	0xbe0217e3	-0.12704425
222	0xbc8e8a48	-0.017399922
223	0xbbd02bd8	-0.006352883
224	0xbd93476a	-0.071913555
225	0xbcef5a0c	-0.029217742
226	0xbe2e3abb	-0.17014591
227	0xbc950419	-0.01819043
228	0xbe361305	-0.17780693
229	0xbcae3b36	-0.021268468
230	0x3db91b9a	0.09038468
231	0xba951e68	-0.001137686
232	0xbd81cc36	-0.06337778
233	0x3b06090f	0.0020452177
234	0xbc22a3db	-0.0099267615
235	0xbde17189	-0.11007983
236	0x3e2393f7	0.15974413
237	0xbcadbab2	-0.021207187
238	0xbe0b0672	-0.13576677
239	0xb9cd4faa	-0.0003916
240	0x3bbb131c	0.005709065
241	0x3d1d284f	0.03836852
242	0xbc4cb95e	-0.012495367
243	0xbd32ee75	-0.04368444
244	0x3d70ee0d	0.058820773
245	0x3e7783f6	0.24171433
246	0x3d16e070	0.036835134
247	0x3e5efece	0.21776888
248	0x3cb9a4aa	0.022661526
249	0xbc9aedb2	-0.01891217
250	0x3da726bd	0.081616856
251	0x3d3983e0	0.04529178
252	0x3d6c3b06	0.057673477
253	0xbe3260d0	-0.17419744
254	0xbdafce7d	-0.085843064
255	0x3dd713d9	0.105018325

fc3.bias f4 [2]
0	0x3bc2536a	0.005930354
1	0xbc0ac5d0	-0.008470014
