checkpoints/agent1_checkpoint_critic.pth (torch_old, 568202 bytes, 5 tensors)

fcs1.weight f4 [400, 52]
00000000: 1116 013e 9da0 4d3e 07c8 3fbd 43b3 ed3d
00000010: 827c 97bd 5e4f 2a3e fd50 62bd 3b81 1f3e
00000020: f573 3f3c 6f3c ca3e d949 b0bd 9891 c83e
00000030: afe5 b9bd efa1 33bd c2dc f4bc 9a0e cb3e
00000040: 85f9 c43d d905 003f b1be 40be e88b 773e
00000050: 2b2c 4fbd 51d4 1dbf 4d35 54be 8c52 773e
00000060: 3044 7f3e 2721 c6be 8099 e3bd 02e4 62be
00000070: be1c 183e 4dd7 413e c79e d6bd faaf 92be
00000080: f087 593e f562 d0be ba66 2b3c 536f 583e
00000090: 7eb5 fe3d c532 dbbd 97cd 3cbc b3a9 8c3e
000000a0: cff3 8a3e 6069 07bf 69a8 05be 1521 9abe
000000b0: f214 833d b2c4 1fbf 1106 11be 0a76 a0be
000000c0: f74c a3be adda ba3e bf3e d83f 2fe0 703e
000000d0: d0d5 283f 2e20 133f 2ba0 bcbb 6cb1 3a3e
000000e0: d724 91be fd7f 0cbf e2f4 3cbc 2e47 073e
000000f0: 0b68 723f 7148 1d3f 6314 f03c 1172 893e
00000100: 3127 debe fd36 18bf bf9a 73bc 458b 863e
00000110: d20f af3f 39e7 583f b573 39bc 8def 773e
00000120: e31d 12bf d467 e3be 5d63 2f3d ee91 853e
00000130: 6b32 d1bc 7245 923e 70ab d7bc a0b3 e938
00000140: 6e77 793e 0eed 11bf 2137 1e3d 8f58 9c3d
00000150: a395 043d a548 943e 0949 47bd 83c9 c1bd
00000160: 7fad cc3e f1a6 0cbf 450e b63c 31d9 c6bc
00000170: c57d 853d 7087 9c3e e505 52bd b067 53be
00000180: abb8 073f 51df fcbe 9768 4fbb 4723 75be
00000190: a9c1 4a3f f26d 513e 97a2 c03b 94bc 553d
000001a0: 66a7 fc3e a6fd b43e 8b3f a7bc f21d 3fbd
000001b0: a565 4cbe 1874 943e 8456 013d 45d7 f4bd
000001c0: 04cc 0c3f b0f7 9b3e 6982 e13c ff6b 113e
000001d0: d48f 74be 89d2 2fbd bbc6 e83c 797e 2f3e
000001e0: d277 543f 88c7 533e 1e8e 743d 05f7 ca3c
000001f0: 2b87 22bf ea2b 76bf 6782 d13c a023 0e3d
00000200: 70e2 b03d 7dd5 f93c e00a ef3b e131 c53d
00000210: 1fa6 603e 63ed a43e d014 ebbb a379 c53d
00000220: 2111 c33c e886 d23d 3884 a4bb 06a4 dabd
00000230: 038c 7e3e c91a 0abe c498 03bd 9370 43bd
00000240: 63d7 b9bd 7177 093e cd31 68bb 4487 693d
00000250: 33cd 273f 4126 78bf 4c9a eabb 5790 1a3e
00000260: 1685 c4bf 18b3 ae3e 7fa8 9f3e 5de6 183e
00000270: 32da 02bc 2103 90be ad41 09bd 2e6f 20bd
00000280: 75f2 253e 5798 48bf 8ce8 6bbd bc5c 45bd
00000290: 0c1a 053e 18a5 a0be e24f a43c 83e8 5cbe
000002a0: ee09 1dbd 3d86 21bf 46c1 683d 731f 6fbe
000002b0: 7fb1 903e ce1b 9ebe 1acb b83d afcc 343e
000002c0: e9a8 6dbe 8f9e 8dbe b01b 443c 2391 183e
000002d0: 694e d93e 1867 23bf 4267 8d3c de31 1e3d
000002e0: cd97 1abe 4bb7 3ebf abd0 e93c 2c5a 113d
000002f0: 005e 293f d691 28bf 8fd1 353b 117b ffbd
00000300: 124c 10bc 6d13 2ebf 78fb af3b 9fd7 4fbe
00000310: 3cb3 453f d480 2fbf 0f65 80bb 82f4 c13e
00000320: d1b8 563e 5680 52be c784 fdbc bbf5 cc3e
00000330: 493f 9a3e 923e e0be ce38 c2be 605d c0bf
00000340: efe9 153f c3f1 f23e 0bca c9bd cd3a b83d
00000350: 0f48 58be c211 6fbf b36c abbd 152a 1e3d
00000360: 430f 4f3e a2f1 603e 5f14 36bd bab4 a83d
00000370: d0d5 9a3e 4879 903d 0347 453b be1b 883d
00000380: 0ae1 653e 7c02 0b3e af2b c0bb 045a cdbe
00000390: 1f57 c73e 6cdc c43e 2fba 0fbd 6235 c5be
000003a0: c112 623f eee5 283e c76a 913c 8ea0 923d
000003b0: ead5 803e 1ddb 6ebf 7544 133d dade 293d
000003c0: 38e1 ac3e d846 2cbe 31ca 0ebe addb 073d
000003d0: cbbf cabe f8f2 8b3d 2952 f8bd 62d9 8b3d
000003e0: 0c63 0d3f 291a 2abe fdb1 563d d9d8 813e
000003f0: 36a7 dbbe 9c86 c83e c2bd 383d 0ee8 7b3e
0.12606074 0.200808 -0.04682162 0.11606457 -0.07396795 0.16631839 -0.055253018 0.15576641
0.011685361 0.39499232 -0.08607835 0.3917358 -0.09077012 -0.043855604 -0.029890422 0.39659578
0.096179046 0.5000892 -0.18822743 0.24174464 -0.05057923 -0.61652094 -0.20723458 0.24152583
0.24928355 -0.38697168 -0.11113262 -0.2215729 0.14854714 0.18929787 -0.10479503 -0.28649884
0.21243262 -0.40700498 0.010461504 0.21136217 0.12436961 -0.10703043 -0.011523626 0.2747322
0.27139136 -0.52895164 -0.13052525 -0.30103365 0.064004794 -0.6240951 -0.1416247 -0.31340057
-0.31894657 0.3649496 1.6894149 0.23523019 0.6595125 0.5747098 -0.005756398 0.18231744
-0.2834842 -0.54882795 -0.011532994 0.13210747 0.94690007 0.6143866 0.029306596 0.26844838
-0.43389276 -0.59458905 -0.014868437 0.2627813 1.3676703 0.8472782 -0.011319091 0.24212475
-0.57076854 -0.44415152 0.04281937 0.26087898 -0.025536736 0.28568608 -0.026326865 0.000111437635
0.24361965 -0.5700234 0.038626794 0.07634079 0.032369267 0.28961673 -0.048653636 -0.094622634
0.39976117 -0.5494223 0.022223601 -0.024273487 0.06518129 0.3057208 -0.051275153 -0.20645022
0.53016156 -0.49389127 -0.0031648034 -0.23939238 0.7920175 0.20452097 0.005878757 0.052181795
0.49346465 0.35349768 -0.020416042 -0.046659417 -0.1996065 0.28994823 0.03157665 -0.11955122
0.54998803 0.30462408 0.027528005 0.14201353 -0.23882991 -0.04292539 0.028415075 0.17138089
0.8299533 0.20681584 0.059705846 0.024775991 -0.634875 -0.9616076 0.025574876 0.034701943
0.086369395 0.030497307 0.0072949976 0.09628654 0.2193837 0.32212362 -0.007174112 0.09642341
0.023811879 0.102796376 -0.0050206445 -0.10675816 0.24858098 -0.1348678 -0.03212811 -0.04771478
-0.09074285 0.1342447 -0.0035430074 0.057013765 0.65547484 -0.9693337 -0.007159507 0.15094124
-1.5353115 0.34121013 0.3118324 0.14931627 -0.007986592 -0.28127387 -0.0335099 -0.03916853
0.16205771 -0.7835745 -0.05759482 -0.04818414 0.12998217 -0.31375957 0.020057622 -0.21573071
-0.038339548 -0.63095456 0.056824945 -0.2335184 0.2826042 -0.30880588 0.090231135 0.17656206
-0.23208965 -0.27660033 0.011969492 0.14899115 0.42442635 -0.63829184 0.017261151 0.038621776
-0.1509697 -0.7449843 0.028541883 0.035486385 0.6615906 -0.6584753 0.0027743315 -0.12474645
-0.008807199 -0.6799839 0.0053705536 -0.20297097 0.77226615 -0.6855595 -0.003918297 0.37881857
0.2096894 -0.20556769 -0.030947102 0.40031227 0.30126408 -0.43797737 -0.37933964 -1.5028496
0.5856008 0.47450075 -0.0985299 0.0899559 -0.21121238 -0.9338647 -0.08370342 0.03861435
0.20220666 0.21967176 -0.04445302 0.08237596 0.3024125 0.070543826 0.003010214 0.066459164
0.22449127 0.13575166 -0.0058645825 -0.4010774 0.38933656 0.3844942 -0.035089668 -0.3851729
0.88309866 0.16493961 0.01775111 0.071595296 0.25163203 -0.9330309 0.035953958 0.041472293
0.33765578 -0.168239 -0.13944317 0.033168484 -0.3959945 0.06833452 -0.12125046 0.06828572
0.5522926 -0.16611542 0.052415837 0.25360754 -0.4290101 0.391652 0.045102842 0.2460024

fcs1.bias f4 [400]
00000000: ca9f 38bf 328d 23bf 5f92 293e a0b8 adbe
00000010: 2437 92be d35b 5bbe c9d8 93be 43e6 d3bd
00000020: eae9 d6bd 0495 cabe 3c1d 743c ae43 ddbe
00000030: 7f34 1fbf c965 563d 727f 10bf 93cc 86be
00000040: 57e5 fdbe c228 ffbe ed35 01bf 398a 02bf
00000050: bba7 73be 0d21 213d 83c2 1c3e 6073 c8be
00000060: 4f5e 52bf 179d a3be 0963 24bf 0657 acbe
00000070: bad7 5ebe ab99 7e3d 3f29 d7be 84d9 b0be
00000080: 9154 b8be 3d7a cabe 210d 6ebe 4a02 babd
00000090: 1d30 323e f0ba 3c3c 8f9a b7bc ce52 8bbe
000000a0: b7bf 853d d5f3 17bf d34b 91be 6ec0 bbbd
000000b0: bee5 92be f90e c1be cca7 a3be 32a2 c7be
000000c0: 6ba2 ddbe 1cf7 cabe 6a44 5cbe aaf0 963e
000000d0: 151a 65be 8dfd bdbe fc97 c7bd af15 d6be
000000e0: ee0a d33d 3d18 cabd f14d 3cbf 83ad 03bf
000000f0: 522f 833e 8c07 a9bc 3a54 bfbe f97d a2be
00000100: 7ef1 17bf 5595 17be 4f50 d7bd 8a48 9ebe
00000110: e3e6 2abe 6517 113d 8c67 13bf 7a27 16bf
00000120: 32dd dcbe a9d2 eb3d de5a 8dbe 4c30 e8bd
00000130: f8d5 dabe 8588 8ebe bddc f5be 60a8 d53d
00000140: e09b 0bbf 8ddb 98be 97d6 13bf 5e92 a6be
00000150: 1fcc 8d3b 94cc f5bd bd08 febd 8ad7 88be
00000160: d132 0fbf ea4d e1be be51 5fbf ba8f 51be
00000170: 4c3d 9fbe 720c f4be 7d13 31be 76a7 33be
00000180: 0cdf 39bf 5d48 883e 8b8d 4ebe 774c c5bd
00000190: d137 863e 35a0 0fbf 2b4e d0be c625 99be
000001a0: 137d 8c3d 9b33 23bf 1dff 37be cad7 2fbf
000001b0: 8377 55be e7ff 8bbe d6c9 60be 9a88 4abf
000001c0: 7713 93be e4e2 30bf 8881 90be b493 0cbf
000001d0: b0dc 1abf 8248 dfbe 56fc 87be 8971 fbbe
000001e0: 4a5f 9fbe ef0d 10bf 2c1c b5be 6d0f 2abe
000001f0: 8d9d 3abd 79c5 d2be 6167 86be 7e01 d6be
00000200: db01 57bd 12fa c2be 0b68 82be 6418 03be
00000210: f6ae 68be 8d12 bcbe 915a 9dbe a88d 31be
00000220: 6da9 97be 9634 8ebe b217 3cbe 7c04 3abe
00000230: 8a1b cbbd a340 82be cf86 953e 8cb9 3abe
00000240: 9512 34bf e744 05bf 8ec7 00bf e834 58bf
00000250: b8dc 40bf b950 aabe 10ca b0be ef7a e0bd
00000260: 4a95 11be e389 cdbd d514 21bf 0e02 18be
00000270: b852 48bc 3938 e6be 5fe8 91be c32b 2bbf
00000280: a6a4 ccbe aacc 04bf c058 8cbd 4395 a7be
00000290: 9e33 53be b0f3 f3bd 0671 e2be 72d0 29bf
000002a0: b4dc bcbe b221 8b3d 25be 0dbf 1c8b f9be
000002b0: 72c8 f3be fd8e 98bc 7189 76bd 4fad a63c
000002c0: 119a 1bbf 1caa db3d 1464 1cbe 4174 aebe
000002d0: ae09 88be 83ed dbbd 41dd 11be bc2b c3bd
000002e0: 1889 5dbe 45e9 abbe 6e30 03be 856b 4cbe
000002f0: 9fe0 c7be 703c 1c3d dead 94be c1f8 15be
00000300: 82db 75be 9e08 70be e95e 87bc 7d3e 5c3d
00000310: f12f 99be 0852 29bf 21e4 94be f534 c9be
00000320: 5719 92be d219 5bbe 3e6d 643d bb4b e6be
00000330: 2cea 33be fc88 cfbd 755e 3dbe bf0a 293b
00000340: 51e5 42be 2c3c dbbd 26f5 38bf e7a9 1fbe
00000350: ed2a 71bc 4123 7ebe a3e6 afbe 8df3 143d
00000360: 970f e5be 507e 15bf d585 f2be 1900 fdbe
00000370: 0a6d 38bf 2024 72be 352a 1cbf 543a 6ebe
00000380: a144 d0be ae80 aa3e 9047 1bbf ac29 8ebe
00000390: 1ba9 04bf 6eee c9be fe09 c8be 3c76 f53e
000003a0: 7cbe b8bd 3c6e 20bc 62b3 a7bd f662 e2bd
000003b0: 4836 3dbe 519d e6be 8927 14bf cfc7 d8be
000003c0: 8693 d6bc 6709 05be 8536 cc3d 66fa 50be
000003d0: 04c6 31bf 4f0e 593d 16b0 06bf 99bc 0fbd
000003e0: 9be9 e03d eb18 88be 8f3a c9be 25da 00bf
000003f0: 7ae3 9bbe a846 f5be 1d3a c4be 5376 febe
-0.7211882 -0.6388732 0.16559742 -0.3392992 -0.28557694 -0.21421747 -0.2887633 -0.10346653
-0.10493834 -0.39566815 0.014899548 -0.43215698 -0.6218948 0.052343164 -0.56444466 -0.26327953
-0.49589035 -0.49835783 -0.5047291 -0.5099216 -0.23794453 0.03933816 0.15308575 -0.39150524
-0.82175153 -0.31955788 -0.64213616 -0.33660144 -0.2176198 0.062158268 -0.42023656 -0.3454095
-0.3600202 -0.39546385 -0.23247196 -0.09082468 0.17401166 0.011519179 -0.022412566 -0.27211612
0.06530707 -0.59356433 -0.28378162 -0.091675624 -0.28690904 -0.37706736 -0.31963956 -0.38990933
-0.43287978 -0.39641654 -0.21510473 0.29480487 -0.22373231 -0.37107506 -0.097457856 -0.41813418
0.10304819 -0.09867904 -0.7355643 -0.5143663 0.2562204 -0.020633481 -0.37368947 -0.31736735
-0.5935286 -0.1480306 -0.105133645 -0.30914718 -0.16689639 0.0354227 -0.57579875 -0.58653986
-0.4313751 0.115147896 -0.2760839 -0.11337337 -0.4274137 -0.2783853 -0.48019972 0.104325056
-0.5453472 -0.29855004 -0.57749313 -0.32533544 0.0043273116 -0.12001911 -0.124040104 -0.26726943
-0.55936915 -0.44004756 -0.87234104 -0.20464984 -0.31101453 -0.47665745 -0.1729259 -0.1754435
-0.7260597 0.2661771 -0.20171182 -0.09633725 0.2621446 -0.5610383 -0.40684637 -0.2991163
0.068597935 -0.6375062 -0.17968412 -0.6868864 -0.20846371 -0.27343675 -0.21951994 -0.7911469
-0.28725788 -0.6909621 -0.28223825 -0.5491288 -0.6049299 -0.43610007 -0.26559705 -0.49110058
-0.31127387 -0.5627126 -0.35373056 -0.16607447 -0.04556041 -0.41166285 -0.26250747 -0.41798013
-0.052492004 -0.38081414 -0.25470003 -0.12802273 -0.22722992 -0.36732903 -0.3073316 -0.17339194
-0.2962145 -0.27774495 -0.18368414 -0.18165773 -0.09917362 -0.2543994 0.29204413 -0.18234843
-0.70340854 -0.5205826 -0.50304496 -0.8445573 -0.7533679 -0.33264711 -0.3452916 -0.10960948
-0.14217106 -0.100360654 -0.6292241 -0.14844534 -0.012226753 -0.4496477 -0.28497598 -0.6686365
-0.39969367 -0.5187479 -0.06852865 -0.32731065 -0.20625159 -0.11911714 -0.44226855 -0.6633369
-0.36887133 0.06793536 -0.5536826 -0.48738945 -0.47613865 -0.01862287 -0.060189668 0.020346312
-0.6078196 0.10725805 -0.15272552 -0.3407307 -0.26569885 -0.10738661 -0.14244558 -0.09529826
-0.21634328 -0.33576408 -0.12811443 -0.1996289 -0.3903856 0.038143575 -0.290389 -0.14645673
-0.24009517 -0.23440787 -0.016524749 0.05377053 -0.2991939 -0.66140795 -0.290803 -0.39298216
-0.28534958 -0.21396568 0.055768244 -0.44979653 -0.17569798 -0.101335496 -0.18493064 0.0025793759
-0.1903279 -0.10704836 -0.72249067 -0.15592156 -0.014719707 -0.24818136 -0.3435565 0.03636508
-0.44738457 -0.5839586 -0.4736773 -0.49414137 -0.7204138 -0.23646593 -0.610019 -0.23264438
-0.4067736 0.333013 -0.6065607 -0.27766168 -0.51820534 -0.3943972 -0.39070123 0.47941768
-0.09020707 -0.009791907 -0.081885114 -0.110540316 -0.18477738 -0.45041898 -0.57872826 -0.42339942
-0.026193392 -0.12991868 0.09971336 -0.2040802 -0.6944277 0.05299216 -0.52612436 -0.03509197
0.10982057 -0.2658151 -0.3930249 -0.5033286 -0.30446988 -0.4790547 -0.38325587 -0.4969965

fc2.weight f4 [300, 400]
00000000: fb4c f03c aad2 6b3c 7d03 443c 4b58 853b
00000010: 8d3d ddbc 1b17 29bd 29d7 b0bc b85d a5bc
00000020: bd33 fbbd c250 b1bd d3a6 063d e3f2 0a3d
00000030: 7ac7 a2bc 2906 ecbb da82 c2bb 041f 81ba
00000040: f73a 31bd 9575 c9bc 7e80 443d 86cc ba3b
00000050: 08fd 0dbd be91 aa3c 7036 a3bc 7be4 873b
00000060: c4f2 0b3d 3de6 5dbd 0ea8 bfbb b27e 22bd
00000070: 49ed f73c 0eaf 52bc 2855 6f3c ebe7 6abc
00000080: 6c29 d3ba 2d52 253c 1854 dbbc 4000 78bc
00000090: 6172 5cbd 556f 1f3b 4082 5fbd f29d a7bd
000000a0: 9067 c1bc c408 923c e1a0 81bd 812f b03c
000000b0: 20ad 40bd 9bae 9abd 40e4 3439 d61a ce3c
000000c0: 4046 80bd 402d 49bd ca33 073c 8dfa f2bd
000000d0: a806 17bd 0a09 03bd 0c87 683a 3c74 933c
000000e0: 4636 84bd b031 bebc b93d 99bd ad7b a7bd
000000f0: 6d1e 51bd e788 7fbd 9e28 23bd 30c7 97bd
00000100: d581 11bd 0f1b 47bb 6e1c c4bc 60c0 a13b
00000110: 740d cc3c 1f1f 743b 5260 5b3c 6edf b1bd
00000120: 9a97 bd3b 929e 8cbd a357 953c 5fbb 9fbd
00000130: 102a 4abd 09b4 d83c 6209 44bd b57e a0bd
00000140: dab8 213d 18d7 d53c ec7b 80bd 8e16 8fbc
00000150: 36dc debc 07da 2d3d e8fd a3bb d263 363c
00000160: 9508 1f3d 6b2e 0abd cb56 3e3c 36ec 3ebd
00000170: 827e cabd d6ca b0bd 1d58 d5bc 6afc 583d
00000180: fba4 f1bc 5832 88bd 8152 87bd 191a 98bb
00000190: 1430 09bc b4ad d73c 1750 9cbd cf6a 59bd
000001a0: 6147 60bc 6496 32bd ca59 13bd e552 82bd
000001b0: a406 4bbd 0b4e ab3c b501 aabd 018b 85bd
000001c0: 2c94 d33a 5120 ec3c 294e cbbd 6963 383c
000001d0: 102e 3fbb bf7f 1e3d d10c 73ba cfe0 45bd
000001e0: e4c6 193c 263a a43c 6b03 ddbc eb44 e8bc
000001f0: 13f9 6fbd a2df b3bd 6066 eabc f6c8 d6bc
00000200: a28f 77bd c807 50bd 04ef c13c f941 f5bb
00000210: 7a2f 4cbd 000a 2aba 30d1 01bc a726 4fbd
00000220: f9ce ff3a 3c9f 063d 69be 0ebb 6247 2bbc
00000230: b8de 5dbd e374 9fbd 26bd 563c 5ad5 7cbc
00000240: d2c5 c5bd dd39 363c 758b 04bd 806b 27bd
00000250: 2f85 4cbc 39c9 dc3c f6a1 3b3d 7b66 09bd
00000260: 4412 5abd 7506 5ebd 7163 c7bc 5b4a 49bd
00000270: ebc3 56bd a1f4 76bc 3db9 22bd 94bf 7dbb
00000280: 24c4 b3bb 92a2 cabd ed07 30bd eb9c 24bd
00000290: 7665 863b 8095 d43b 0f4a b5bc 801c 54bd
000002a0: c648 1cbd 1dce 81bc ac30 db3c 4cf1 a9bc
000002b0: 01ed d8ba 721a 70bd 61d9 8f3c 9e59 4d3b
000002c0: b98e dcbc bb04 56bd 6935 3d3d eae6 86bd
000002d0: 3930 29bd 073e 81ba c7d4 10bd 424f 97bc
000002e0: 156b d5bc f4d9 07bd 46ed c63c 5d25 81bd
000002f0: 9bb1 67bc eab7 29bd 299c 313c 3875 5dbd
00000300: bcc7 733d 30b9 cd3c 5ea3 7abd 9cd6 cdbc
00000310: 34dc 3bbd 68d4 b7bd 33a2 083d 4aa0 1c3d
00000320: e8f6 96bd b757 95bd 916b c4bc 6de0 463d
00000330: c763 91bc d517 8f3c 72c4 01bd eb56 afba
00000340: e802 2fbc b44a d83c 3cf3 6dbd d913 193c
00000350: 256a d7bd 4101 94bc 0f43 d4bc 07ef 3cbd
00000360: a91a c439 63ef 82bd 5ac6 51bd 3c90 93bd
00000370: cd74 37bc 0db8 533c 7049 40bc 3648 89bd
00000380: 6874 e23c c0b0 8ebd 00df dcbd 2967 52bd
00000390: b04d e8bb 5968 3fbd 97e2 83bb 2cfb 1abd
000003a0: 2497 f7bc 2b2c 21bd 4c26 b2bc ca57 31bd
000003b0: 4d5c f23c 5b74 81bc a580 89bd fe2a b23c
000003c0: e760 2bbd 4353 853a 0871 ab3c 4c82 9d3c
000003d0: 8ab2 04bd cb83 49bd a394 0d3d 47a2 95bc
000003e0: a73b 57bd fe20 b2bd 3ad3 82bc b1a1 42bd
000003f0: 1986 50bb 4f4f 2b3d de6b f4bc 44eb 163d
0.029333582 0.014393488 0.011963722 0.004069363 -0.027006889 -0.0412818 -0.021586971 -0.02018629
-0.12265728 -0.086579815 0.03287394 0.03392304 -0.019870508 -0.007202883 -0.005936009 -0.0009851162
-0.043269124 -0.0245922 0.047974102 0.0057006506 -0.034665138 0.020821448 -0.019923419 0.00414711
0.034167066 -0.05417465 -0.005848891 -0.039671607 0.030264514 -0.012859119 0.014607705 -0.01433752
-0.0016110367 0.010090393 -0.026773497 -0.015136778 -0.053820018 0.0024327834 -0.054567575 -0.081844226
-0.023608953 0.017826445 -0.06329513 0.021507027 -0.047040105 -0.075528346 0.00017251167 0.02515928
-0.06263399 -0.04911542 0.008252094 -0.11864195 -0.036871582 -0.031991042 0.0008870221 0.01799976
-0.06455664 -0.023217052 -0.07482476 -0.08177886 -0.051054407 -0.06238642 -0.039833657 -0.07411039
-0.035524208 -0.0030381118 -0.023939338 0.004936263 0.024908759 0.0037249995 0.013389664 -0.08685194
0.0057858946 -0.068661824 0.018230265 -0.0779941 -0.04935652 0.026453035 -0.04786051 -0.078366674
0.03948293 0.026103541 -0.06273636 -0.01746681 -0.027204614 0.042444255 -0.005004633 0.011132197
0.038826544 -0.033735674 0.011617373 -0.046611987 -0.09887411 -0.08632438 -0.026042992 0.052975096
-0.029497614 -0.06650227 -0.06607533 -0.004641783 -0.008373279 0.026327945 -0.076324634 -0.053080376
-0.013688893 -0.043600455 -0.0359743 -0.06363467 -0.04956688 0.020911237 -0.08301107 -0.065206535
0.0016142181 0.028824003 -0.09927017 0.01125417 -0.0029171742 0.038696047 -0.0009271624 -0.048310097
0.009385798 0.020047259 -0.026979169 -0.028353175 -0.058587145 -0.08782889 -0.02861327 -0.026218873
-0.060439713 -0.05078867 0.023673542 -0.007484671 -0.049849965 -0.00064864755 -0.007923409 -0.05057397
0.0019516639 0.0328667 -0.0021780974 -0.010454031 -0.05416748 -0.07785966 0.01310662 -0.015431726
-0.09656872 0.011122194 -0.03235956 -0.040874004 -0.012482925 0.02695142 0.045808755 -0.033545
-0.053240076 -0.054205377 -0.02433941 -0.049143177 -0.052432936 -0.0150729725 -0.03972744 -0.0038718926
-0.0054860283 -0.09894289 -0.04297631 -0.04018871 0.0041014506 0.0064875484 -0.02213004 -0.051784992
-0.03815534 -0.015845353 0.026756607 -0.020744942 -0.0016550125 -0.05861897 0.017559709 0.0031333934
-0.026923524 -0.052250605 0.046193514 -0.06587012 -0.041305754 -0.0009860405 -0.03535917 -0.01847041
-0.026052037 -0.03316684 0.024283063 -0.063059546 -0.014141466 -0.04143516 0.010840454 -0.054066867
0.059516653 0.025112718 -0.061190955 -0.025126748 -0.0458643 -0.0897606 0.03335781 0.0382388
-0.073713124 -0.07292121 -0.023977073 0.048553873 -0.017747773 0.017467419 -0.031681485 -0.0013377344
-0.010681845 0.026402809 -0.058093295 0.009343111 -0.10518292 -0.018067004 -0.025910882 -0.04612639
0.00037403897 -0.06393316 -0.051214553 -0.07205245 -0.011197281 0.012922299 -0.011736259 -0.06703226
0.027643397 -0.06967306 -0.107847214 -0.051367912 -0.007089339 -0.046730373 -0.0040248143 -0.037837192
-0.030223437 -0.039348762 -0.021746777 -0.043296613 0.029585028 -0.015802553 -0.0671399 0.021749016
-0.04184046 0.0010171909 0.020927921 0.01922717 -0.03239683 -0.049197953 0.03456558 -0.018265856
-0.052547123 -0.08697699 -0.015969861 -0.047517482 -0.003181821 0.04182368 -0.029836591 0.03684546

fc2.bias f4 [300]
00000000: a777 a7bd e88e a5bd 7920 683f 2adb e6bd
00000010: 9a32 f2bd b97f 90bd b4db 06be 23a7 58be
00000020: 0df8 a5bd 7cb8 d8bd b1dd f6bd 2d8d 8f3c
00000030: 3911 04be 0d9b 68bd 50ef 96bd ae0f 0fbe
00000040: 58a6 ebbd f91d 21bd a04b 97bd 9c92 36bd
00000050: 70f0 55be 19bb 12be a18a 9dbd 6c09 b0bc
00000060: 5496 d0bd 87aa 26be 2228 c0bd 6fa8 04be
00000070: 2a8e 1ebe e914 8fbd d2d8 30be 29d1 1fbe
00000080: 072a 8cbd 93d8 2c3e 7bb5 b0bd 9a82 05be
00000090: 6e3f ecbd eece 06be e9bc d2bd cf4e 12be
000000a0: b46c 0bbe 131e ddbd 9e00 cdbd 837b a23e
000000b0: 1aa9 d3bd 74e5 5bbe 3626 bfbd d507 fdbd
000000c0: 9e96 aebd 403a fcbd acd0 2dbe d5dc 7bbd
000000d0: bf04 39be 9494 b53d 5b3e 6abd 213f bcbd
000000e0: 1459 d1bd 0e96 ef3d 3a17 a1bd ebd0 c1bd
000000f0: 0210 c9bd 078a abbd 621b c6bd 2ba5 25be
00000100: 6496 ffbd f0db 81be f066 0bbe c060 15be
00000110: 745c 09be 9b75 a7bd 5ae6 efbd 67e4 abbd
00000120: 5492 2dbe 8b3b adbd 22ad 60bd b201 05bf
00000130: 3c62 bdbd 8270 4c3c 0a86 bebe 4549 88bd
00000140: 3030 edbd 1fb9 01be 3710 b8bd 5a09 fdbd
00000150: ffa0 dabd 1880 27bd 6fc6 03be e1b5 debd
00000160: cb46 fdbd 6628 e7bc 7d40 b1bd 2c1e 1ebe
00000170: 6be4 5abe 8c68 a5bd e4cc a2be db96 0cbe
00000180: ac2a 32be 3b80 a7bd 07ca 1ebe 8868 0dbe
00000190: 9205 eabd 64a0 ecbd 4631 dbbd 4f51 bfbd
000001a0: 1e82 31be 9ed8 b6bd 48ac 0dbe 21b3 15be
000001b0: d428 34be c0a7 f7bd f101 27be b9e2 c5bd
000001c0: ea1c fdbd 1613 c0bd 329f bbbd 238d edbd
000001d0: 501a 66bd 955b e7bd 1f99 1ebe 3cc4 adbd
000001e0: 9c9a 2fbe 1fa2 cbbd 72a1 febd 73ab a7bd
000001f0: 8cb3 3abe 8a45 5abd 8f98 adbd a5b9 f5bd
00000200: 651f 23be 8dfc c1bd 6d8b a7bd dc1e 29be
00000210: f83f 91bd 2904 40be 3da1 b8bd 1ab6 edbd
00000220: 278f debd 57cf 05be 0d7f 58be cdee eebd
00000230: 02e3 0bbe a486 24be 4f13 0fbe 134a 17be
00000240: b252 d1bd a57c ebbd b51a a8bd 08f7 e0bd
00000250: 58ff c7bd ebe8 b5bd 6057 04be f01f 27be
00000260: ba82 eabd b1ec d43d df53 d5bd 1222 81bd
00000270: 1618 ffbd 677f 633e 778a 823c 90f1 a6bd
00000280: 5547 623e 686e 23be 9e8e 19bc 82d9 d5bd
00000290: 78b9 ed3c 1e51 27bd eca3 07be 2c30 cfbd
000002a0: 6b9f a3bd f1dc 0ebe b1c0 ebbd e027 b7bd
000002b0: 4672 65be f306 e5bd c06e 973e 0d4f 10bd
000002c0: 3dd7 cfbd e249 b4bd 44cf c0bd 0fd5 dfbd
000002d0: 8922 c9bd 004d 2dbd 6316 c7bd cfbd acbe
000002e0: d572 09be 6ddd f4bd dc59 cfbd cabb 03be
000002f0: bd79 1ebe be30 03be d272 01be e901 04be
00000300: d685 bebe 03c7 3fbd 41f3 9b3c 441a 97bd
00000310: db6a 8abe 2fbc d0bd f841 1abe c5ea b13e
00000320: 8195 98bd d64c 14be abbd 18be 76d6 cbbd
00000330: 1c05 473e ebb3 e8bd 8644 bfbd 20bf fbbd
00000340: 4851 cdbd b7e2 8fbd b471 ddbd 40fd 39bd
00000350: 8bba f1bd bc39 2bbe 0bf8 f3bd 29fa b7bd
00000360: 9319 39be 187c 91bd 094e ecbd eb8d 2fbe
00000370: 27b4 db3e 804e f7bd b6d5 b1bd 5029 023f
00000380: 2bfb 2abe c0c9 23be 6d6b d4bd 1a6a 3abe
00000390: 9004 cabd 11aa adbd f1f6 01be ada4 b7bd
000003a0: c344 abbd 6a0e 0a3e 0f2d 0cbe 3592 b6bd
000003b0: e024 20be 3464 66be 581d 29be 29b8 e2bd
000003c0: b9e5 17bd 72c4 fabd d661 9dbd 134d 98bd
000003d0: 1889 a6be 2f73 84bd 9abd 0ebe abfa 0bbe
000003e0: 838b 96bd 4e0f 32be eb6c c8bd e93c dbbd
000003f0: ee34 2cbe c886 9bbd a6b4 c6bd cc9d 82bd
-0.08177119 -0.08083898 0.9067455 -0.11272271 -0.11826058 -0.07055611 -0.13169748 -0.21157508
-0.081039526 -0.105820626 -0.12054003 0.017523373 -0.12897195 -0.056788493 -0.07369864 -0.13970825
-0.11506337 -0.039335225 -0.07387471 -0.04457341 -0.20892501 -0.14329185 -0.07692457 -0.021488868
-0.10184923 -0.16275989 -0.09382655 -0.12954877 -0.15483919 -0.0698641 -0.1727021 -0.15607132
-0.068439536 0.16879492 -0.08628365 -0.13038102 -0.11535536 -0.13164875 -0.10289938 -0.14287876
-0.13615686 -0.10796752 -0.10009883 0.31734857 -0.10334988 -0.21474248 -0.0933346 -0.123550095
-0.08524822 -0.12315798 -0.16974133 -0.0614899 -0.18068217 0.0886623 -0.057188373 -0.091917284
-0.102220684 0.116985425 -0.07865758 -0.09463676 -0.098175064 -0.08375936 -0.096731916 -0.16176288
-0.124798566 -0.25363111 -0.13613486 -0.14587688 -0.13414174 -0.08176728 -0.11713858 -0.08393174
-0.16950351 -0.084586225 -0.054852612 -0.5195571 -0.09247252 0.012477996 -0.3721164 -0.066546
-0.11581457 -0.12668274 -0.08987468 -0.12355299 -0.10675239 -0.040893644 -0.12868665 -0.108745344
-0.12367018 -0.028217506 -0.08654878 -0.15441197 -0.21376197 -0.08076581 -0.31796944 -0.13729422
-0.1739909 -0.08178755 -0.15506755 -0.13809407 -0.11426844 -0.115540296 -0.107027575 -0.0934168
-0.17334792 -0.08928035 -0.13835251 -0.14619114 -0.175937 -0.12092543 -0.16309334 -0.096623845
-0.123590305 -0.0937864 -0.091612235 -0.11599185 -0.056177437 -0.11296765 -0.15488099 -0.08484694
-0.17148823 -0.099430315 -0.12433137 -0.08186998 -0.18232554 -0.053288974 -0.08476364 -0.119982995
-0.15929945 -0.09471998 -0.0818089 -0.16515678 -0.07092279 -0.18751587 -0.09015129 -0.11606999
-0.10867148 -0.13067375 -0.21142216 -0.116666414 -0.13660815 -0.16066986 -0.1397221 -0.14774351
-0.10220851 -0.114983834 -0.08208219 -0.109846175 -0.097655 -0.08882316 -0.12923956 -0.16320777
-0.11450715 0.10396708 -0.10416388 -0.063053265 -0.12455766 0.22216569 0.015935166 -0.08151543
0.22097524 -0.15960085 -0.0093723815 -0.10441877 0.029019102 -0.040848844 -0.13246125 -0.1011661
-0.07989391 -0.1395147 -0.11511362 -0.089431524 -0.22406873 -0.11182966 0.29576683 -0.03523164
-0.10148475 -0.088031545 -0.09414533 -0.109293096 -0.0982104 -0.04230976 -0.09721067 -0.33738562
-0.13422711 -0.11956296 -0.10124561 -0.12864605 -0.15476127 -0.12811562 -0.12641457 -0.12891354
-0.37211484 -0.04682065 0.019036891 -0.07378057 -0.2703465 -0.10192143 -0.15064228 0.34749427
-0.074503906 -0.14482436 -0.14916103 -0.099530146 0.19435543 -0.11362442 -0.09339242 -0.122923136
-0.10025269 -0.07025664 -0.10812703 -0.045407534 -0.118031584 -0.16721243 -0.11912545 -0.08983261
-0.18076162 -0.07103747 -0.115383215 -0.17143981 0.42910883 -0.120755196 -0.0868334 0.5084429
-0.16697375 -0.1599493 -0.10372052 -0.18204537 -0.098641515 -0.08479703 -0.12691857 -0.08966956
-0.08362725 0.13482061 -0.13689063 -0.089146055 -0.15639067 -0.22499162 -0.165151 -0.11070282
-0.037084315 -0.122445 -0.07684676 -0.07436576 -0.3252647 -0.06467282 -0.13939515 -0.13669841
-0.073508285 -0.17388651 -0.097863995 -0.10704977 -0.16817066 -0.07594067 -0.09702425 -0.063777536

fc3.weight f4 [1, 300]
00000000: 8c53 813c f30f 0d3b 6fc3 a53b 51cb 3f3b
00000010: 5ec4 5fbc a057 ffba 21a3 203c 9700 3cbc
00000020: 19e9 7a3c 60eb 163a e039 a1bb f314 ccbc
00000030: b0b2 c63c 8013 27bb 54f8 e6ba fd38 733c
00000040: ce9c ce3b bd49 ce3a 3245 8bbc abd2 e6bb
00000050: a303 41bb 7a58 023c 6f03 363b 9155 5ebd
00000060: 69a6 b13c 4786 a1bb f236 de3a d4c8 023c
00000070: 1943 acbc 2857 dbbc c151 6f3c 7bfa 6d3c
00000080: cdec 98bc beec 8b3c 4dba 20ba 2c69 2bbb
00000090: c141 73bb 9b2f 973c 72e0 833c df38 58bc
000000a0: 18e3 a03c 8077 41bc 4d33 71bb b8ab 3e3c
000000b0: b835 e8bb 917a f23b 5260 013c 8315 4cbc
000000c0: 9052 c3b9 27c1 cfbc aa76 45bc 5518 8ebb
000000d0: 2c94 12bb aacb e63c 733c 5ebc cbb5 113c
000000e0: 44fb 543c ce24 cebc 41b9 7fbc d639 ad3b
000000f0: 906f f13a 92d5 103b de32 ed3a c436 963c
00000100: 9429 a6ba 3fc2 68bc 29a7 00bc 0377 4d3c
00000110: b6a9 dbbc c757 c3bc 6f74 70bb adfd 8cbb
00000120: 99d6 a03c f0d2 17bc d63a efbc 1d8d 00bc
00000130: 09ba 80bc 5d86 143d 24a0 c6bc af50 1b3c
00000140: 5cdc 133c 63be 143c e9bd d43a 8a92 2b3c
00000150: a87c 06bc 8bef f23a c9ff b1bc 8d3c 373c
00000160: 8e96 81bb e888 e7bc 5c1a 8d3c 4f6c b5bc
00000170: 5a9e aabc a681 c1bb d778 823b 8fe1 893a
00000180: cac2 32bc e28c 163a 55dc a2bc 05c9 e7bc
00000190: 9bf1 d4bb 25d4 91bc 05c5 803b 9a92 8cbc
000001a0: f321 8ebc 99bf bcbc a2d1 5f3c fb9a 28bc
000001b0: 026e 4dbc 268e 94bc 0a09 283c 511a 573b
000001c0: 1814 df3c 0dc7 01bc 3f05 71ba 6a07 a13c
000001d0: 954a 493c 4c64 d23c 60a7 143b 069f 8d3b
000001e0: 3a0d 07bb d065 0b3b 0047 c43b 357a ca3c
000001f0: 5dc4 06bc c33b 09bc a0cd 1f3b fd74 debb
00000200: 8004 4bbc 8340 d9ba 9e36 403b cc72 f13b
00000210: 5a6d aabc d814 8b3b 1547 823c 8ff9 c33c
00000220: dfc4 c3bb 348d 963c 65dc a53a edc2 fcbb
00000230: 668a ffb8 20d8 3abc a73d 553b 82fa cd3b
00000240: 6907 05bc a9d8 b13c f670 b6bb 58b9 3fbc
00000250: 9f00 003c 6cf3 073c f6ee 053c 3dbf 163c
00000260: 44b3 713c 8f47 6fbb 98c0 c93c e005 a33b
00000270: fda9 30bc c519 73bc 9e13 8d3c dddb 7c3c
00000280: 10db 09bd 7840 90bc 0bb6 0ebd 5f46 b53c
00000290: e3a9 20bc 9607 183c ee90 8bbc f2af 923c
000002a0: dcd7 f93b 82e9 d53b f40e da3c c348 c3bb
000002b0: 7f80 1fbd 69fe 8abc 7d66 24bc 1c37 be3c
000002c0: a3e6 463c bc20 7b3c 3f43 8dbc 6cc5 9cbb
000002d0: d3a3 82bc 87d6 c33c 60ee 1fbc 7ca7 2bbd
000002e0: 6fb2 6b3b 382e 8a3c 97a5 81bc 8c1a 143c
000002f0: a12a 82bb ab4f 313c fce7 483c e202 1fbc
00000300: eab9 e7bc 08d7 193d 6b27 c93c 5705 e63c
00000310: 9bc7 15bd c41b 453b 208a 833b 1a0b 9cbc
00000320: 9c75 afbc 2446 383c 33d6 973b 5979 55bb
00000330: 450b cabc 0499 993c 421e 30bc b92f bfbc
00000340: e15f 123c 14a5 81bc b5c8 31bc 69b5 253c
00000350: c183 5f3b c022 9c3b 2629 b3bc a10c 8b3b
00000360: 253e 603c 721b 9abc 904a 2cbc 09b2 973c
00000370: f7ba 9c3c ab7d 7939 7040 d1bb f2d0 263c
00000380: e9ea b9bb 3092 c23a 0985 4b3c 9492 e6bc
00000390: 3e0a 4dbc ca31 e23a e4aa aa3c c0e7 a9bc
000003a0: 7b8c 863b c120 473c fa64 203b e9f4 6bbc
000003b0: e326 af3c c4a1 a73c f60f a7bb 5563 afbc
000003c0: f2ce ab3b 5ca7 cb3a 77f2 ed3b c2a7 0bbc
000003d0: 2722 863c 3d28 24bc 71db 9cbc 2683 173a
000003e0: 0d36 e9b9 cb77 b53a 225b 0d3d cffe bcbc
000003f0: 50fb c9bb 11c4 5c3b 2c50 5fbc 959b 96bb
0.015786909 0.00215244 0.005058698 0.0029265473 -0.013657657 -0.001948107 0.009804518 -0.01147475
0.015314364 0.00057571195 -0.0049202293 -0.024912333 0.024255127 -0.00254938 -0.0017621615 0.01484513
0.0063053137 0.0015738528 -0.017000768 -0.0070441565 -0.002945163 0.007955665 0.0027773043 -0.05428082
0.021685796 -0.004929337 0.0016953631 0.0079824515 -0.021028088 -0.026774958 0.014606894 0.014525051
-0.018667603 0.01708066 -0.00061312766 -0.0026155217 -0.003711805 0.018455317 0.016098235 -0.013197153
0.019639537 -0.011808276 -0.003680426 0.011637621 -0.007086482 0.007399865 0.0078965 -0.012456301
-0.00037254812 -0.025360657 -0.0120522175 -0.0043363967 -0.002236615 0.028173286 -0.013564217 0.0088934405
0.0129993595 -0.025164034 -0.015608133 0.0052864356 0.0018420089 0.0022099954 0.0018096825 0.018336661
-0.0012677186 -0.014206468 -0.007852354 0.012540582 -0.026814323 -0.023845566 -0.0036690494 -0.0043027014
0.019633578 -0.0092666 -0.02920286 -0.007846144 -0.015713708 0.03626095 -0.024246283 0.009479686
0.009024706 0.009078595 0.0016230914 0.010471949 -0.008208431 0.0018534524 -0.021728413 0.01118387
-0.003954715 -0.028263524 0.017224483 -0.022146372 -0.020827461 -0.005905348 0.0039816904 0.0010519492
-0.010910699 0.0005743039 -0.019880453 -0.028294096 -0.006498528 -0.017801354 0.0039297366 -0.017159749
-0.017350173 -0.02304058 0.01366082 -0.0102908565 -0.012538435 -0.018134188 0.010256061 0.0032822082
0.027231261 -0.007920993 -0.0009194202 0.019656856 0.012285848 0.02568259 0.002268277 0.0043219356
-0.002060725 0.0021270402 0.005989909 0.024716476 -0.008225528 -0.008376065 0.0024384037 -0.0067888484
-0.01239121 -0.0016575012 0.002932943 0.007368421 -0.020804096 0.004244428 0.015903035 0.02392271
-0.0059743966 0.018377878 0.0012654184 -0.0077136667 -0.00012185126 -0.011404067 0.0032537968 0.0062859664
-0.0081194425 0.021709757 -0.005567665 -0.011701904 0.007812648 0.008297782 0.0081746485 0.009200868
0.014752213 -0.0036511158 0.024627969 0.0049750656 -0.010782716 -0.014837687 0.017221268 0.015433279
-0.03365618 -0.017608866 -0.03484158 0.022128282 -0.009806129 0.009279152 -0.017036881 0.017906163
0.0076246094 0.0065280804 0.026618458 -0.0059596016 -0.038940903 -0.016967015 -0.010034201 0.023219638
0.012139949 0.015327629 -0.01724398 -0.0047842767 -0.015947258 0.023906006 -0.009761423 -0.041907772
0.003596451 0.016867742 -0.01582603 0.009039532 -0.003972367 0.010822217 0.012262341 -0.009705277
-0.028286893 0.037558585 0.024554929 0.028078718 -0.03656731 0.0030076364 0.0040142685 -0.019048262
-0.021418385 0.011247192 0.004633689 -0.003257355 -0.024663577 0.018749721 -0.0107494015 -0.023338186
0.008933992 -0.015825786 -0.010851075 0.010114052 0.003410563 0.0047648847 -0.021870207 0.004243449
0.013686691 -0.018811915 -0.010515824 0.018517511 0.01913212 0.00023793305 -0.0063858554 0.010181652
-0.0056737554 0.0014844593 0.012421855 -0.028146066 -0.012514649 0.001725727 0.02083344 -0.02074039
0.004106102 0.012153805 0.002447425 -0.014401653 0.021380847 0.020462878 -0.0050983382 -0.02140967
0.0052431757 0.0015537548 0.00726157 -0.008523883 0.016373707 -0.010019359 -0.019147607 0.00057797355
-0.00044481494 0.0013844905 0.03451074 -0.023070721 -0.006163992 0.00336862 -0.013629954 -0.0045961835
